Before oversampling: Counter({2.0: 6305, 1.0: 5288})
After oversampling: Counter({2.0: 6305, 1.0: 6305})
Classes: [1. 2.]
*************************** Fold #: 1 ***************************
Model: "model"
_________________________________________________________________
 Layer (type)                Output Shape              Param #   
=================================================================
 input_1 (InputLayer)        [(None, 13)]              0         
                                                                 
 dense (Dense)               (None, 10)                140       
                                                                 
 dense_1 (Dense)             (None, 10)                110       
                                                                 
 dense_2 (Dense)             (None, 10)                110       
                                                                 
 dense_3 (Dense)             (None, 10)                110       
                                                                 
 dense_4 (Dense)             (None, 10)                110       
                                                                 
 dense_5 (Dense)             (None, 2)                 22        
                                                                 
=================================================================
Total params: 602
Trainable params: 602
Non-trainable params: 0
_________________________________________________________________
*************************** Fold #: 2 ***************************
Model: "model_1"
_________________________________________________________________
 Layer (type)                Output Shape              Param #   
=================================================================
 input_2 (InputLayer)        [(None, 13)]              0         
                                                                 
 dense_6 (Dense)             (None, 10)                140       
                                                                 
 dense_7 (Dense)             (None, 10)                110       
                                                                 
 dense_8 (Dense)             (None, 10)                110       
                                                                 
 dense_9 (Dense)             (None, 10)                110       
                                                                 
 dense_10 (Dense)            (None, 10)                110       
                                                                 
 dense_11 (Dense)            (None, 2)                 22        
                                                                 
=================================================================
Total params: 602
Trainable params: 602
Non-trainable params: 0
_________________________________________________________________
*************************** Fold #: 3 ***************************
Model: "model_2"
_________________________________________________________________
 Layer (type)                Output Shape              Param #   
=================================================================
 input_3 (InputLayer)        [(None, 13)]              0         
                                                                 
 dense_12 (Dense)            (None, 10)                140       
                                                                 
 dense_13 (Dense)            (None, 10)                110       
                                                                 
 dense_14 (Dense)            (None, 10)                110       
                                                                 
 dense_15 (Dense)            (None, 10)                110       
                                                                 
 dense_16 (Dense)            (None, 10)                110       
                                                                 
 dense_17 (Dense)            (None, 2)                 22        
                                                                 
=================================================================
Total params: 602
Trainable params: 602
Non-trainable params: 0
_________________________________________________________________
*************************** Fold #: 4 ***************************
Model: "model_3"
_________________________________________________________________
 Layer (type)                Output Shape              Param #   
=================================================================
 input_4 (InputLayer)        [(None, 13)]              0         
                                                                 
 dense_18 (Dense)            (None, 10)                140       
                                                                 
 dense_19 (Dense)            (None, 10)                110       
                                                                 
 dense_20 (Dense)            (None, 10)                110       
                                                                 
 dense_21 (Dense)            (None, 10)                110       
                                                                 
 dense_22 (Dense)            (None, 10)                110       
                                                                 
 dense_23 (Dense)            (None, 2)                 22        
                                                                 
=================================================================
Total params: 602
Trainable params: 602
Non-trainable params: 0
_________________________________________________________________
*************************** Fold #: 5 ***************************
Model: "model_4"
_________________________________________________________________
 Layer (type)                Output Shape              Param #   
=================================================================
 input_5 (InputLayer)        [(None, 13)]              0         
                                                                 
 dense_24 (Dense)            (None, 10)                140       
                                                                 
 dense_25 (Dense)            (None, 10)                110       
                                                                 
 dense_26 (Dense)            (None, 10)                110       
                                                                 
 dense_27 (Dense)            (None, 10)                110       
                                                                 
 dense_28 (Dense)            (None, 10)                110       
                                                                 
 dense_29 (Dense)            (None, 2)                 22        
                                                                 
=================================================================
Total params: 602
Trainable params: 602
Non-trainable params: 0
_________________________________________________________________
*************************** Fold #: 6 ***************************
Model: "model_5"
_________________________________________________________________
 Layer (type)                Output Shape              Param #   
=================================================================
 input_6 (InputLayer)        [(None, 13)]              0         
                                                                 
 dense_30 (Dense)            (None, 10)                140       
                                                                 
 dense_31 (Dense)            (None, 10)                110       
                                                                 
 dense_32 (Dense)            (None, 10)                110       
                                                                 
 dense_33 (Dense)            (None, 10)                110       
                                                                 
 dense_34 (Dense)            (None, 10)                110       
                                                                 
 dense_35 (Dense)            (None, 2)                 22        
                                                                 
=================================================================
Total params: 602
Trainable params: 602
Non-trainable params: 0
_________________________________________________________________
*************************** Fold #: 7 ***************************
Model: "model_6"
_________________________________________________________________
 Layer (type)                Output Shape              Param #   
=================================================================
 input_7 (InputLayer)        [(None, 13)]              0         
                                                                 
 dense_36 (Dense)            (None, 10)                140       
                                                                 
 dense_37 (Dense)            (None, 10)                110       
                                                                 
 dense_38 (Dense)            (None, 10)                110       
                                                                 
 dense_39 (Dense)            (None, 10)                110       
                                                                 
 dense_40 (Dense)            (None, 10)                110       
                                                                 
 dense_41 (Dense)            (None, 2)                 22        
                                                                 
=================================================================
Total params: 602
Trainable params: 602
Non-trainable params: 0
_________________________________________________________________
*************************** Fold #: 8 ***************************
Model: "model_7"
_________________________________________________________________
 Layer (type)                Output Shape              Param #   
=================================================================
 input_8 (InputLayer)        [(None, 13)]              0         
                                                                 
 dense_42 (Dense)            (None, 10)                140       
                                                                 
 dense_43 (Dense)            (None, 10)                110       
                                                                 
 dense_44 (Dense)            (None, 10)                110       
                                                                 
 dense_45 (Dense)            (None, 10)                110       
                                                                 
 dense_46 (Dense)            (None, 10)                110       
                                                                 
 dense_47 (Dense)            (None, 2)                 22        
                                                                 
=================================================================
Total params: 602
Trainable params: 602
Non-trainable params: 0
_________________________________________________________________
*************************** Fold #: 9 ***************************
Model: "model_8"
_________________________________________________________________
 Layer (type)                Output Shape              Param #   
=================================================================
 input_9 (InputLayer)        [(None, 13)]              0         
                                                                 
 dense_48 (Dense)            (None, 10)                140       
                                                                 
 dense_49 (Dense)            (None, 10)                110       
                                                                 
 dense_50 (Dense)            (None, 10)                110       
                                                                 
 dense_51 (Dense)            (None, 10)                110       
                                                                 
 dense_52 (Dense)            (None, 10)                110       
                                                                 
 dense_53 (Dense)            (None, 2)                 22        
                                                                 
=================================================================
Total params: 602
Trainable params: 602
Non-trainable params: 0
_________________________________________________________________
*************************** Fold #: 10 ***************************
Model: "model_9"
_________________________________________________________________
 Layer (type)                Output Shape              Param #   
=================================================================
 input_10 (InputLayer)       [(None, 13)]              0         
                                                                 
 dense_54 (Dense)            (None, 10)                140       
                                                                 
 dense_55 (Dense)            (None, 10)                110       
                                                                 
 dense_56 (Dense)            (None, 10)                110       
                                                                 
 dense_57 (Dense)            (None, 10)                110       
                                                                 
 dense_58 (Dense)            (None, 10)                110       
                                                                 
 dense_59 (Dense)            (None, 2)                 22        
                                                                 
=================================================================
Total params: 602
Trainable params: 602
Non-trainable params: 0
_________________________________________________________________
