*************************** Fold #: 1 ***************************
Model: "sequential"
_________________________________________________________________
Layer (type)                 Output Shape              Param #   
=================================================================
dense (Dense)                (None, 20)                600       
_________________________________________________________________
dense_1 (Dense)              (None, 20)                420       
_________________________________________________________________
dense_2 (Dense)              (None, 20)                420       
_________________________________________________________________
dense_3 (Dense)              (None, 20)                420       
_________________________________________________________________
dense_4 (Dense)              (None, 20)                420       
_________________________________________________________________
dense_5 (Dense)              (None, 1)                 21        
=================================================================
Total params: 2,301
Trainable params: 2,301
Non-trainable params: 0
_________________________________________________________________
Epoch 1/10000
7/7 - 0s - loss: 6.6715 - val_loss: 6.8491

Epoch 00001: val_loss improved from inf to 6.84910, saving model to ./results/NN_thk_regr/window/FYI/theta_CAE/ckpt_1
Epoch 2/10000
7/7 - 0s - loss: 6.6214 - val_loss: 6.7926
…
