Model: "sequential"
_________________________________________________________________
Layer (type)                 Output Shape              Param #   
=================================================================
zero_padding3d (ZeroPadding3 (None, 8, 8, 8, 1)        0         
_________________________________________________________________
conv3d (Conv3D)              (None, 8, 8, 8, 8)        224       
_________________________________________________________________
max_pooling3d (MaxPooling3D) (None, 4, 4, 4, 8)        0         
_________________________________________________________________
conv3d_1 (Conv3D)            (None, 4, 4, 4, 4)        868       
_________________________________________________________________
max_pooling3d_1 (MaxPooling3 (None, 2, 2, 2, 4)        0         
_________________________________________________________________
conv3d_2 (Conv3D)            (None, 2, 2, 2, 4)        436       
_________________________________________________________________
up_sampling3d (UpSampling3D) (None, 4, 4, 4, 4)        0         
_________________________________________________________________
conv3d_3 (Conv3D)            (None, 4, 4, 4, 4)        436       
_________________________________________________________________
up_sampling3d_1 (UpSampling3 (None, 8, 8, 8, 4)        0         
_________________________________________________________________
conv3d_4 (Conv3D)            (None, 8, 8, 8, 8)        872       
_________________________________________________________________
conv3d_5 (Conv3D)            (None, 8, 8, 8, 1)        217       
_________________________________________________________________
cropping3d (Cropping3D)      (None, 7, 7, 6, 1)        0         
=================================================================
Total params: 3,053
Trainable params: 3,053
Non-trainable params: 0
_________________________________________________________________
Epoch 1/1000
14/14 - 7s - loss: 0.1015 - val_loss: 0.2281

Epoch 00001: val_loss improved from inf to 0.22809, saving model to ./CAE_models/thk_canny/ckpt
Epoch 2/1000
14/14 - 7s - loss: 0.0947 - val_loss: 0.2112
…
14/14 - 7s - loss: 0.0539 - val_loss: 0.0893

Epoch 00128: val_loss did not improve from 0.08257
Epoch 129/1000
14/14 - 7s - loss: 0.0538 - val_loss: 0.0895

Epoch 00129: val_loss did not improve from 0.08257
Epoch 00129: early stopping
Model: "model"
_________________________________________________________________
Layer (type)                 Output Shape              Param #   
=================================================================
input_1 (InputLayer)         [(None, 7, 7, 6, 1)]      0         
_________________________________________________________________
zero_padding3d (ZeroPadding3 (None, 8, 8, 8, 1)        0         
_________________________________________________________________
conv3d (Conv3D)              (None, 8, 8, 8, 8)        224       
_________________________________________________________________
max_pooling3d (MaxPooling3D) (None, 4, 4, 4, 8)        0         
_________________________________________________________________
conv3d_1 (Conv3D)            (None, 4, 4, 4, 4)        868       
_________________________________________________________________
max_pooling3d_1 (MaxPooling3 (None, 2, 2, 2, 4)        0         
_________________________________________________________________
conv3d_2 (Conv3D)            (None, 2, 2, 2, 4)        436       
=================================================================
Total params: 1,528
Trainable params: 1,528
Non-trainable params: 0
_________________________________________________________________
Performance on train dataset (mean error): 0.004520051181316376
Model: "model_1"
_________________________________________________________________
Layer (type)                 Output Shape              Param #   
=================================================================
input_1 (InputLayer)         [(None, 7, 7, 6, 1)]      0         
_________________________________________________________________
zero_padding3d (ZeroPadding3 (None, 8, 8, 8, 1)        0         
_________________________________________________________________
conv3d (Conv3D)              (None, 8, 8, 8, 8)        224       
_________________________________________________________________
max_pooling3d (MaxPooling3D) (None, 4, 4, 4, 8)        0         
_________________________________________________________________
conv3d_1 (Conv3D)            (None, 4, 4, 4, 4)        868       
_________________________________________________________________
max_pooling3d_1 (MaxPooling3 (None, 2, 2, 2, 4)        0         
_________________________________________________________________
conv3d_2 (Conv3D)            (None, 2, 2, 2, 4)        436       
=================================================================
Total params: 1,528
Trainable params: 1,528
Non-trainable params: 0
_________________________________________________________________
Performance on test dataset (mean error): 0.06423317641019821
