Model: "sequential_15"
_________________________________________________________________
Layer (type)                 Output Shape              Param #   
=================================================================
zero_padding3d_5 (ZeroPaddin (None, 8, 8, 8, 1)        0         
_________________________________________________________________
conv3d_30 (Conv3D)           (None, 8, 8, 8, 8)        224       
_________________________________________________________________
max_pooling3d_10 (MaxPooling (None, 4, 4, 4, 8)        0         
_________________________________________________________________
conv3d_31 (Conv3D)           (None, 4, 4, 4, 4)        868       
_________________________________________________________________
max_pooling3d_11 (MaxPooling (None, 2, 2, 2, 4)        0         
_________________________________________________________________
conv3d_32 (Conv3D)           (None, 2, 2, 2, 4)        436       
_________________________________________________________________
up_sampling3d_10 (UpSampling (None, 4, 4, 4, 4)        0         
_________________________________________________________________
conv3d_33 (Conv3D)           (None, 4, 4, 4, 4)        436       
_________________________________________________________________
up_sampling3d_11 (UpSampling (None, 8, 8, 8, 4)        0         
_________________________________________________________________
conv3d_34 (Conv3D)           (None, 8, 8, 8, 8)        872       
_________________________________________________________________
conv3d_35 (Conv3D)           (None, 8, 8, 8, 1)        217       
_________________________________________________________________
cropping3d_5 (Cropping3D)    (None, 7, 7, 6, 1)        0         
=================================================================
Total params: 3,053
Trainable params: 3,053
Non-trainable params: 0
_________________________________________________________________
Epoch 1/1000
14/14 - 7s - loss: 0.1047 - val_loss: 0.1789

Epoch 00001: val_loss improved from inf to 0.17895, saving model to ./CAE_models/thk_canny/ckpt
Epoch 2/1000
14/14 - 7s - loss: 0.0976 - val_loss: 0.2111
…
14/14 - 7s - loss: 0.0533 - val_loss: 0.0997

Epoch 00208: val_loss did not improve from 0.09485
Epoch 209/1000
14/14 - 7s - loss: 0.0533 - val_loss: 0.0991

Epoch 00209: val_loss did not improve from 0.09485
Epoch 00209: early stopping
Model: "model_10"
_________________________________________________________________
Layer (type)                 Output Shape              Param #   
=================================================================
input_16 (InputLayer)        [(None, 7, 7, 6, 1)]      0         
_________________________________________________________________
zero_padding3d_5 (ZeroPaddin (None, 8, 8, 8, 1)        0         
_________________________________________________________________
conv3d_30 (Conv3D)           (None, 8, 8, 8, 8)        224       
_________________________________________________________________
max_pooling3d_10 (MaxPooling (None, 4, 4, 4, 8)        0         
_________________________________________________________________
conv3d_31 (Conv3D)           (None, 4, 4, 4, 4)        868       
_________________________________________________________________
max_pooling3d_11 (MaxPooling (None, 2, 2, 2, 4)        0         
_________________________________________________________________
conv3d_32 (Conv3D)           (None, 2, 2, 2, 4)        436       
=================================================================
Total params: 1,528
Trainable params: 1,528
Non-trainable params: 0
_________________________________________________________________
Performance on train dataset (mean error): 0.0007812802214175463
Model: "model_11"
_________________________________________________________________
Layer (type)                 Output Shape              Param #   
=================================================================
input_16 (InputLayer)        [(None, 7, 7, 6, 1)]      0         
_________________________________________________________________
zero_padding3d_5 (ZeroPaddin (None, 8, 8, 8, 1)        0         
_________________________________________________________________
conv3d_30 (Conv3D)           (None, 8, 8, 8, 8)        224       
_________________________________________________________________
max_pooling3d_10 (MaxPooling (None, 4, 4, 4, 8)        0         
_________________________________________________________________
conv3d_31 (Conv3D)           (None, 4, 4, 4, 4)        868       
_________________________________________________________________
max_pooling3d_11 (MaxPooling (None, 2, 2, 2, 4)        0         
_________________________________________________________________
conv3d_32 (Conv3D)           (None, 2, 2, 2, 4)        436       
=================================================================
Total params: 1,528
Trainable params: 1,528
Non-trainable params: 0
_________________________________________________________________
Performance on test dataset (mean error): 0.06567353755235672
