Before oversampling: Counter({1.0: 5123, 2.0: 4766})
After oversampling: Counter({1.0: 5123, 2.0: 5123})
Classes: [1. 2.]
*************************** Fold #: 1 ***************************
Model: "model"
_________________________________________________________________
Layer (type)                 Output Shape              Param #   
=================================================================
input_1 (InputLayer)         [(None, 29)]              0         
_________________________________________________________________
dense (Dense)                (None, 20)                600       
_________________________________________________________________
dense_1 (Dense)              (None, 20)                420       
_________________________________________________________________
dense_2 (Dense)              (None, 20)                420       
_________________________________________________________________
dense_3 (Dense)              (None, 20)                420       
_________________________________________________________________
dense_4 (Dense)              (None, 20)                420       
_________________________________________________________________
dense_5 (Dense)              (None, 2)                 42        
=================================================================
Total params: 2,322
Trainable params: 2,322
Non-trainable params: 0
_________________________________________________________________
