*************************** Fold #: 1 ***************************
Model: "sequential"
_________________________________________________________________
Layer (type)                 Output Shape              Param #   
=================================================================
dense (Dense)                (None, 9)                 126       
_________________________________________________________________
dense_1 (Dense)              (None, 9)                 90        
_________________________________________________________________
dense_2 (Dense)              (None, 9)                 90        
_________________________________________________________________
dense_3 (Dense)              (None, 9)                 90        
_________________________________________________________________
dense_4 (Dense)              (None, 9)                 90        
_________________________________________________________________
dense_5 (Dense)              (None, 1)                 10        
=================================================================
Total params: 496
Trainable params: 496
Non-trainable params: 0
_________________________________________________________________
Epoch 1/10000
5/5 - 0s - loss: 7.1523 - val_loss: 7.8564

Epoch 00001: val_loss improved from inf to 7.85641, saving model to ./results/NN_thk_regr/FYI/aggr/ckpt_1
Epoch 2/10000
5/5 - 0s - loss: 7.1250 - val_loss: 7.8275
…
