*************************** Fold #: 1 ***************************
Model: "model"
_________________________________________________________________
Layer (type)                 Output Shape              Param #   
=================================================================
cat (InputLayer)             [(None, 15)]              0         
_________________________________________________________________
dense (Dense)                (None, 10)                160       
_________________________________________________________________
dense_1 (Dense)              (None, 10)                110       
_________________________________________________________________
dense_2 (Dense)              (None, 10)                110       
_________________________________________________________________
dense_3 (Dense)              (None, 10)                110       
_________________________________________________________________
dense_4 (Dense)              (None, 10)                110       
_________________________________________________________________
dense_5 (Dense)              (None, 1)                 11        
=================================================================
Total params: 611
Trainable params: 611
Non-trainable params: 0
_________________________________________________________________
Epoch 1/10000
8/8 - 0s - loss: 37247.1055 - val_loss: 37915.1641

Epoch 00001: val_loss improved from inf to 37915.16406, saving model to ./results/NN_rms_regr/FYI_MYI_likelihood/corr_std/ckpt_1
Epoch 2/10000
…
