…
9})
After oversampling: Counter({0: 1429, 1: 1429, 2: 1429, 3: 1429, 4: 1429})
Before oversampling: Counter({0: 4664, 1: 2475, 2: 1573, 3: 852, 4: 366})
After oversampling: Counter({0: 366, 1: 366, 2: 366, 3: 366, 4: 366})
Model: "model_4"
_________________________________________________________________
 Layer (type)                Output Shape              Param #   
=================================================================
 input_16 (InputLayer)       [(None, 7, 7, 4, 1)]      0         
                                                                 
 zero_padding3d_5 (ZeroPaddi  (None, 8, 8, 4, 1)       0         
 ng3D)                                                           
                                                                 
 conv3d_30 (Conv3D)          (None, 8, 8, 4, 8)        224       
                                                                 
 max_pooling3d_10 (MaxPoolin  (None, 4, 4, 2, 8)       0         
 g3D)                                                            
                                                                 
 conv3d_31 (Conv3D)          (None, 4, 4, 2, 4)        868       
                                                                 
 max_pooling3d_11 (MaxPoolin  (None, 2, 2, 1, 4)       0         
 g3D)                                                            
                                                                 
 conv3d_32 (Conv3D)          (None, 2, 2, 1, 4)        436       
                                                                 
=================================================================
Total params: 1,528
Trainable params: 1,528
Non-trainable params: 0
_________________________________________________________________
Performance on train dataset (mean error): 0.012826153077185154
Model: "model_5"
_________________________________________________________________
 Layer (type)                Output Shape              Param #   
=================================================================
 input_16 (InputLayer)       [(None, 7, 7, 4, 1)]      0         
                                                                 
 zero_padding3d_5 (ZeroPaddi  (None, 8, 8, 4, 1)       0         
 ng3D)                                                           
                                                                 
 conv3d_30 (Conv3D)          (None, 8, 8, 4, 8)        224       
                                                                 
 max_pooling3d_10 (MaxPoolin  (None, 4, 4, 2, 8)       0         
 g3D)                                                            
                                                                 
 conv3d_31 (Conv3D)          (None, 4, 4, 2, 4)        868       
                                                                 
 max_pooling3d_11 (MaxPoolin  (None, 2, 2, 1, 4)       0         
 g3D)                                                            
                                                                 
 conv3d_32 (Conv3D)          (None, 2, 2, 1, 4)        436       
                                                                 
=================================================================
Total params: 1,528
Trainable params: 1,528
Non-trainable params: 0
_________________________________________________________________
Performance on test dataset (mean error): 0.013560103252530098
