…
82})
After oversampling: Counter({0: 1282, 1: 1282, 2: 1282, 3: 1282, 4: 1282})
Before oversampling: Counter({0: 5392, 1: 3838, 2: 2509, 3: 1219, 4: 519})
After oversampling: Counter({0: 519, 1: 519, 2: 519, 3: 519, 4: 519})
Model: "model"
_________________________________________________________________
 Layer (type)                Output Shape              Param #   
=================================================================
 input_1 (InputLayer)        [(None, 7, 7, 4, 1)]      0         
                                                                 
 zero_padding3d (ZeroPadding  (None, 8, 8, 4, 1)       0         
 3D)                                                             
                                                                 
 conv3d (Conv3D)             (None, 8, 8, 4, 8)        224       
                                                                 
 max_pooling3d (MaxPooling3D  (None, 4, 4, 2, 8)       0         
 )                                                               
                                                                 
 conv3d_1 (Conv3D)           (None, 4, 4, 2, 4)        868       
                                                                 
 max_pooling3d_1 (MaxPooling  (None, 2, 2, 1, 4)       0         
 3D)                                                             
                                                                 
 conv3d_2 (Conv3D)           (None, 2, 2, 1, 4)        436       
                                                                 
=================================================================
Total params: 1,528
Trainable params: 1,528
Non-trainable params: 0
_________________________________________________________________
Performance on train dataset (mean error): 0.00047025433741509914
Model: "model_1"
_________________________________________________________________
 Layer (type)                Output Shape              Param #   
=================================================================
 input_1 (InputLayer)        [(None, 7, 7, 4, 1)]      0         
                                                                 
 zero_padding3d (ZeroPadding  (None, 8, 8, 4, 1)       0         
 3D)                                                             
                                                                 
 conv3d (Conv3D)             (None, 8, 8, 4, 8)        224       
                                                                 
 max_pooling3d (MaxPooling3D  (None, 4, 4, 2, 8)       0         
 )                                                               
                                                                 
 conv3d_1 (Conv3D)           (None, 4, 4, 2, 4)        868       
                                                                 
 max_pooling3d_1 (MaxPooling  (None, 2, 2, 1, 4)       0         
 3D)                                                             
                                                                 
 conv3d_2 (Conv3D)           (None, 2, 2, 1, 4)        436       
                                                                 
=================================================================
Total params: 1,528
Trainable params: 1,528
Non-trainable params: 0
_________________________________________________________________
Performance on test dataset (mean error): 0.00159823102876544
