…
1007  5.4130           1.0           1.0           1.0           1.0           1.0           0.0           0.0           0.0  ...           0.0           0.0           1.0           0.0           0.0           0.0           0.0           1.0  [[[[1.0], [0.4366546630859375], [0.20648259181...
1008  5.3690           0.0           0.0           0.0           1.0           1.0           1.0           1.0           0.0  ...           1.0           0.0           1.0           1.0           1.0           0.0           0.0           0.0  [[[[0.0], [0.4386554493623621], [0.21016405890...

[1009 rows x 51 columns]
Size of dataset: (1009, 50)
Model: "sequential"
_________________________________________________________________
 Layer (type)                Output Shape              Param #   
=================================================================
 zero_padding3d (ZeroPadding  (None, 8, 8, 4, 1)       0         
 3D)                                                             
                                                                 
 conv3d (Conv3D)             (None, 8, 8, 4, 8)        224       
                                                                 
 max_pooling3d (MaxPooling3D  (None, 4, 4, 2, 8)       0         
 )                                                               
                                                                 
 conv3d_1 (Conv3D)           (None, 4, 4, 2, 4)        868       
                                                                 
 max_pooling3d_1 (MaxPooling  (None, 2, 2, 1, 4)       0         
 3D)                                                             
                                                                 
 conv3d_2 (Conv3D)           (None, 2, 2, 1, 4)        436       
                                                                 
 up_sampling3d (UpSampling3D  (None, 4, 4, 2, 4)       0         
 )                                                               
                                                                 
 conv3d_3 (Conv3D)           (None, 4, 4, 2, 4)        436       
                                                                 
 up_sampling3d_1 (UpSampling  (None, 8, 8, 4, 4)       0         
 3D)                                                             
                                                                 
 conv3d_4 (Conv3D)           (None, 8, 8, 4, 8)        872       
                                                                 
 conv3d_5 (Conv3D)           (None, 8, 8, 4, 1)        217       
                                                                 
 cropping3d (Cropping3D)     (None, 7, 7, 4, 1)        0         
                                                                 
=================================================================
Total params: 3,053
Trainable params: 3,053
Non-trainable params: 0
_________________________________________________________________
Epoch 1/1000

Epoch 1: val_loss improved from inf to 0.16561, saving model to ./CAE_models/CAE/ckpt
4/4 - 3s - loss: 0.1803 - val_loss: 0.1656 - 3s/epoch - 817ms/step
…
4/4 - 2s - loss: 0.1059 - val_loss: 0.1081 - 2s/epoch - 445ms/step
Epoch 943/1000

Epoch 943: val_loss did not improve from 0.10789
4/4 - 2s - loss: 0.1059 - val_loss: 0.1080 - 2s/epoch - 445ms/step
Epoch 943: early stopping
Model: "model"
_________________________________________________________________
 Layer (type)                Output Shape              Param #   
=================================================================
 input_1 (InputLayer)        [(None, 7, 7, 4, 1)]      0         
                                                                 
 zero_padding3d (ZeroPadding  (None, 8, 8, 4, 1)       0         
 3D)                                                             
                                                                 
 conv3d (Conv3D)             (None, 8, 8, 4, 8)        224       
                                                                 
 max_pooling3d (MaxPooling3D  (None, 4, 4, 2, 8)       0         
 )                                                               
                                                                 
 conv3d_1 (Conv3D)           (None, 4, 4, 2, 4)        868       
                                                                 
 max_pooling3d_1 (MaxPooling  (None, 2, 2, 1, 4)       0         
 3D)                                                             
                                                                 
 conv3d_2 (Conv3D)           (None, 2, 2, 1, 4)        436       
                                                                 
=================================================================
Total params: 1,528
Trainable params: 1,528
Non-trainable params: 0
_________________________________________________________________
Performance on train dataset (mean error): 0.00025196775095537305
Model: "model_1"
_________________________________________________________________
 Layer (type)                Output Shape              Param #   
=================================================================
 input_1 (InputLayer)        [(None, 7, 7, 4, 1)]      0         
                                                                 
 zero_padding3d (ZeroPadding  (None, 8, 8, 4, 1)       0         
 3D)                                                             
                                                                 
 conv3d (Conv3D)             (None, 8, 8, 4, 8)        224       
                                                                 
 max_pooling3d (MaxPooling3D  (None, 4, 4, 2, 8)       0         
 )                                                               
                                                                 
 conv3d_1 (Conv3D)           (None, 4, 4, 2, 4)        868       
                                                                 
 max_pooling3d_1 (MaxPooling  (None, 2, 2, 1, 4)       0         
 3D)                                                             
                                                                 
 conv3d_2 (Conv3D)           (None, 2, 2, 1, 4)        436       
                                                                 
=================================================================
Total params: 1,528
Trainable params: 1,528
Non-trainable params: 0
_________________________________________________________________
Performance on test dataset (mean error): 0.0036659373436123133
