…
951  5.3690  0.572549  0.549020  0.486275  0.501961  0.388235  0.337255  0.396078  0.443137  0.396078  0.549020  0.611765  0.454902  ...  0.509804  0.537255  0.501961  0.592157  0.564706  0.360784  0.529412  0.600000  0.407843  0.435294  0.372549  0.282353  [[[[0.5725490196078431], [0.1588658052332261],...

[952 rows x 51 columns]
Size of dataset: (952, 50)
Model: "sequential"
_________________________________________________________________
 Layer (type)                Output Shape              Param #   
=================================================================
 zero_padding3d (ZeroPadding  (None, 8, 8, 4, 1)       0         
 3D)                                                             
                                                                 
 conv3d (Conv3D)             (None, 8, 8, 4, 8)        224       
                                                                 
 max_pooling3d (MaxPooling3D  (None, 4, 4, 2, 8)       0         
 )                                                               
                                                                 
 conv3d_1 (Conv3D)           (None, 4, 4, 2, 4)        868       
                                                                 
 max_pooling3d_1 (MaxPooling  (None, 2, 2, 1, 4)       0         
 3D)                                                             
                                                                 
 conv3d_2 (Conv3D)           (None, 2, 2, 1, 4)        436       
                                                                 
 up_sampling3d (UpSampling3D  (None, 4, 4, 2, 4)       0         
 )                                                               
                                                                 
 conv3d_3 (Conv3D)           (None, 4, 4, 2, 4)        436       
                                                                 
 up_sampling3d_1 (UpSampling  (None, 8, 8, 4, 4)       0         
 3D)                                                             
                                                                 
 conv3d_4 (Conv3D)           (None, 8, 8, 4, 8)        872       
                                                                 
 conv3d_5 (Conv3D)           (None, 8, 8, 4, 1)        217       
                                                                 
 cropping3d (Cropping3D)     (None, 7, 7, 3, 1)        0         
                                                                 
=================================================================
Total params: 3,053
Trainable params: 3,053
Non-trainable params: 0
_________________________________________________________________
Epoch 1/1000

Epoch 1: val_loss improved from inf to 0.09377, saving model to ./CAE_models/CAE/ckpt
4/4 - 3s - loss: 0.1296 - val_loss: 0.0938 - 3s/epoch - 764ms/step
…
13133  5.043  0.341176  0.301961  0.247059  0.156863  0.176471  0.168627  0.196078  0.321569  0.301961  0.266667  0.203922  0.215686  ...  0.247059  0.247059  0.196078  0.207843  0.274510  0.309804  0.290196  0.266667  0.219608  0.180392  0.168627  0.227451  [[[[0.3411764705882353], [0.1376932929543887],...

[13129 rows x 51 columns]
Size of dataset: (13129, 50)
Model: "model"
_________________________________________________________________
 Layer (type)                Output Shape              Param #   
=================================================================
 input_1 (InputLayer)        [(None, 7, 7, 3, 1)]      0         
                                                                 
 zero_padding3d (ZeroPadding  (None, 8, 8, 4, 1)       0         
 3D)                                                             
                                                                 
 conv3d (Conv3D)             (None, 8, 8, 4, 8)        224       
                                                                 
 max_pooling3d (MaxPooling3D  (None, 4, 4, 2, 8)       0         
 )                                                               
                                                                 
 conv3d_1 (Conv3D)           (None, 4, 4, 2, 4)        868       
                                                                 
 max_pooling3d_1 (MaxPooling  (None, 2, 2, 1, 4)       0         
 3D)                                                             
                                                                 
 conv3d_2 (Conv3D)           (None, 2, 2, 1, 4)        436       
                                                                 
=================================================================
Total params: 1,528
Trainable params: 1,528
Non-trainable params: 0
_________________________________________________________________
Performance on train dataset (mean error): 0.0003667284909170121
Model: "model_1"
_________________________________________________________________
 Layer (type)                Output Shape              Param #   
=================================================================
 input_1 (InputLayer)        [(None, 7, 7, 3, 1)]      0         
                                                                 
 zero_padding3d (ZeroPadding  (None, 8, 8, 4, 1)       0         
 3D)                                                             
                                                                 
 conv3d (Conv3D)             (None, 8, 8, 4, 8)        224       
                                                                 
 max_pooling3d (MaxPooling3D  (None, 4, 4, 2, 8)       0         
 )                                                               
                                                                 
 conv3d_1 (Conv3D)           (None, 4, 4, 2, 4)        868       
                                                                 
 max_pooling3d_1 (MaxPooling  (None, 2, 2, 1, 4)       0         
 3D)                                                             
                                                                 
 conv3d_2 (Conv3D)           (None, 2, 2, 1, 4)        436       
                                                                 
=================================================================
Total params: 1,528
Trainable params: 1,528
Non-trainable params: 0
_________________________________________________________________
Performance on test dataset (mean error): 0.0007526820409111679
            label    HH_0_0  HH_0_1  HH_0_2  HH_0_3  HH_0_4  HH_0_5  HH_0_6    HH_1_0  HH_1_1  HH_1_2  HH_1_3  HH_1_4  HH_1_5  HH_1_6  ...   HH_5_0  HH_5_1  HH_5_2  HH_5_3  HH_5_4  HH_5_5  HH_5_6    HH_6_0  HH_6_1  HH_6_2  HH_6_3  HH_6_4  HH_6_5  HH_6_6                                                CNN
…
