*************************** Fold #: 1 ***************************
Model: "sequential"
_________________________________________________________________
Layer (type)                 Output Shape              Param #   
=================================================================
dense (Dense)                (None, 20)                600       
_________________________________________________________________
dense_1 (Dense)              (None, 20)                420       
_________________________________________________________________
dense_2 (Dense)              (None, 20)                420       
_________________________________________________________________
dense_3 (Dense)              (None, 20)                420       
_________________________________________________________________
dense_4 (Dense)              (None, 20)                420       
_________________________________________________________________
dense_5 (Dense)              (None, 1)                 21        
=================================================================
Total params: 2,301
Trainable params: 2,301
Non-trainable params: 0
_________________________________________________________________
Epoch 1/10000
4/4 - 0s - loss: 39020.5195 - val_loss: 42588.2812

Epoch 00001: val_loss improved from inf to 42588.28125, saving model to ./results/NN_rms_regr/MYI/CAE/ckpt_1
Epoch 2/10000
4/4 - 0s - loss: 39018.4141 - val_loss: 42585.9766
…
