*************************** Fold #: 1 ***************************
Model: "model"
_________________________________________________________________
Layer (type)                 Output Shape              Param #   
=================================================================
cat (InputLayer)             [(None, 42)]              0         
_________________________________________________________________
dense (Dense)                (None, 28)                1204      
_________________________________________________________________
dense_1 (Dense)              (None, 28)                812       
_________________________________________________________________
dense_2 (Dense)              (None, 28)                812       
_________________________________________________________________
dense_3 (Dense)              (None, 28)                812       
_________________________________________________________________
dense_4 (Dense)              (None, 28)                812       
_________________________________________________________________
dense_5 (Dense)              (None, 1)                 29        
=================================================================
Total params: 4,481
Trainable params: 4,481
Non-trainable params: 0
_________________________________________________________________
Epoch 1/10000
5/5 - 0s - loss: 7.1833 - val_loss: 7.5546

Epoch 00001: val_loss improved from inf to 7.55455, saving model to ./results/NN_thk_regr/FYI//SOBEL_CAE/ckpt_1
Epoch 2/10000
5/5 - 0s - loss: 7.1486 - val_loss: 7.5164
…
