…
2768  5.147  0.243137  0.086275  0.093302  0.066355  0.873926  0.059719  181.825287  0.231132  0.073709  0.093302

[2769 rows x 11 columns]
Size of dataset: (2769, 11)
*************************** Fold #: 1 ***************************
Model: "model"
_________________________________________________________________
 Layer (type)                Output Shape              Param #   
=================================================================
 cat (InputLayer)            [(None, 10)]              0         
                                                                 
 dense (Dense)               (None, 15)                165       
                                                                 
 dense_1 (Dense)             (None, 15)                240       
                                                                 
 dense_2 (Dense)             (None, 15)                240       
                                                                 
 dense_3 (Dense)             (None, 15)                240       
                                                                 
 dense_4 (Dense)             (None, 15)                240       
                                                                 
 dense_5 (Dense)             (None, 1)                 16        
                                                                 
=================================================================
Total params: 1,141
Trainable params: 1,141
Non-trainable params: 0
_________________________________________________________________
Epoch 1/10000

Epoch 1: val_loss improved from inf to 7.94583, saving model to ./results/NN_thk_regr/FYI_MYI_rms//backscatter/ckpt_1
…
