Model: "sequential_15"
_________________________________________________________________
Layer (type)                 Output Shape              Param #   
=================================================================
zero_padding3d_5 (ZeroPaddin (None, 8, 8, 4, 1)        0         
_________________________________________________________________
conv3d_35 (Conv3D)           (None, 8, 8, 4, 8)        224       
_________________________________________________________________
max_pooling3d_10 (MaxPooling (None, 4, 4, 2, 8)        0         
_________________________________________________________________
conv3d_36 (Conv3D)           (None, 4, 4, 2, 4)        868       
_________________________________________________________________
max_pooling3d_11 (MaxPooling (None, 2, 2, 1, 4)        0         
_________________________________________________________________
conv3d_37 (Conv3D)           (None, 2, 2, 1, 4)        436       
_________________________________________________________________
conv3d_38 (Conv3D)           (None, 2, 2, 1, 4)        436       
_________________________________________________________________
up_sampling3d_10 (UpSampling (None, 4, 4, 2, 4)        0         
_________________________________________________________________
conv3d_39 (Conv3D)           (None, 4, 4, 2, 4)        436       
_________________________________________________________________
up_sampling3d_11 (UpSampling (None, 8, 8, 4, 4)        0         
_________________________________________________________________
conv3d_40 (Conv3D)           (None, 8, 8, 4, 8)        872       
_________________________________________________________________
conv3d_41 (Conv3D)           (None, 8, 8, 4, 1)        145       
_________________________________________________________________
cropping3d_5 (Cropping3D)    (None, 7, 7, 4, 1)        0         
=================================================================
Total params: 3,417
Trainable params: 3,417
Non-trainable params: 0
_________________________________________________________________
Epoch 1/1000
14/14 - 4s - loss: 0.0327 - val_loss: 0.1508

Epoch 00001: val_loss improved from inf to 0.15079, saving model to ./CAE_models/thk_theta/ckpt
Epoch 2/1000
14/14 - 3s - loss: 0.0293 - val_loss: 0.1766
…
14/14 - 3s - loss: 4.9639e-04 - val_loss: 0.0459

Epoch 00543: val_loss did not improve from 0.04565
Epoch 544/1000
14/14 - 3s - loss: 5.0393e-04 - val_loss: 0.0457

Epoch 00544: val_loss did not improve from 0.04565
Epoch 00544: early stopping
Model: "model_10"
_________________________________________________________________
Layer (type)                 Output Shape              Param #   
=================================================================
input_16 (InputLayer)        [(None, 7, 7, 4, 1)]      0         
_________________________________________________________________
zero_padding3d_5 (ZeroPaddin (None, 8, 8, 4, 1)        0         
_________________________________________________________________
conv3d_35 (Conv3D)           (None, 8, 8, 4, 8)        224       
_________________________________________________________________
max_pooling3d_10 (MaxPooling (None, 4, 4, 2, 8)        0         
_________________________________________________________________
conv3d_36 (Conv3D)           (None, 4, 4, 2, 4)        868       
_________________________________________________________________
max_pooling3d_11 (MaxPooling (None, 2, 2, 1, 4)        0         
_________________________________________________________________
conv3d_37 (Conv3D)           (None, 2, 2, 1, 4)        436       
=================================================================
Total params: 1,528
Trainable params: 1,528
Non-trainable params: 0
_________________________________________________________________
Performance on train dataset (mean error): 0.005115935113281012
Model: "model_11"
_________________________________________________________________
Layer (type)                 Output Shape              Param #   
=================================================================
input_16 (InputLayer)        [(None, 7, 7, 4, 1)]      0         
_________________________________________________________________
zero_padding3d_5 (ZeroPaddin (None, 8, 8, 4, 1)        0         
_________________________________________________________________
conv3d_35 (Conv3D)           (None, 8, 8, 4, 8)        224       
_________________________________________________________________
max_pooling3d_10 (MaxPooling (None, 4, 4, 2, 8)        0         
_________________________________________________________________
conv3d_36 (Conv3D)           (None, 4, 4, 2, 4)        868       
_________________________________________________________________
max_pooling3d_11 (MaxPooling (None, 2, 2, 1, 4)        0         
_________________________________________________________________
conv3d_37 (Conv3D)           (None, 2, 2, 1, 4)        436       
=================================================================
Total params: 1,528
Trainable params: 1,528
Non-trainable params: 0
_________________________________________________________________
Performance on test dataset (mean error): 0.1365501433610916
