…
: 2, 438: 2, 449: 2, 469: 2, 475: 2, 480: 2, 484: 2, 492: 2, 494: 2, 1: 1, 411: 1, 457: 1, 459: 1, 465: 1, 467: 1, 470: 1, 490: 1})
Size of dataset: (11218, 7)
*************************** Fold #: 1 ***************************
Model: "model"
_________________________________________________________________
 Layer (type)                Output Shape              Param #   
=================================================================
 cat (InputLayer)            [(None, 6)]               0         
                                                                 
 dense (Dense)               (None, 12)                84        
                                                                 
 dense_1 (Dense)             (None, 12)                156       
                                                                 
 dense_2 (Dense)             (None, 12)                156       
                                                                 
 dense_3 (Dense)             (None, 12)                156       
                                                                 
 dense_4 (Dense)             (None, 12)                156       
                                                                 
 dense_5 (Dense)             (None, 1)                 13        
                                                                 
=================================================================
Total params: 721
Trainable params: 721
Non-trainable params: 0
_________________________________________________________________
Epoch 1/10000

Epoch 1: val_loss improved from inf to 30011.70898, saving model to ./results/NN_rms_regr/FYI_MYI/backscatter/ckpt_1
…
