Before oversampling: Counter({0: 14497, 1: 10484, 2: 6777, 3: 3386, 4: 1431})
After oversampling: Counter({0: 1431, 1: 1431, 2: 1431, 3: 1431, 4: 1431})
*************************** Fold #: 1 ***************************
Model: "model"
_________________________________________________________________
 Layer (type)                Output Shape              Param #   
=================================================================
 cat (InputLayer)            [(None, 6)]               0         
                                                                 
 dense (Dense)               (None, 10)                70        
                                                                 
 dense_1 (Dense)             (None, 10)                110       
                                                                 
 dense_2 (Dense)             (None, 10)                110       
                                                                 
 dense_3 (Dense)             (None, 10)                110       
                                                                 
 dense_4 (Dense)             (None, 10)                110       
                                                                 
 dense_5 (Dense)             (None, 1)                 11        
                                                                 
=================================================================
Total params: 521
Trainable params: 521
Non-trainable params: 0
_________________________________________________________________
Epoch 1/10000

Epoch 1: val_loss improved from inf to 64063.25391, saving model to ./results/NN_rms_regr/FYI_MYI/backscatter/ckpt_1
…
