…
13969   78.309037           0.0           0.0           1.0           1.0           0.0           0.0           0.0           0.0  ...           1.0           1.0           0.0           0.0           1.0           0.0           0.0           1.0  [[[[0.0], [0.2889155668370864], [0.09179671792...

[13477 rows x 51 columns]
Size of dataset: (13477, 50)
Model: "sequential_2"
_________________________________________________________________
 Layer (type)                Output Shape              Param #   
=================================================================
 zero_padding3d (ZeroPadding  (None, 8, 8, 4, 1)       0         
 3D)                                                             
                                                                 
 conv3d (Conv3D)             (None, 8, 8, 4, 8)        224       
                                                                 
 max_pooling3d (MaxPooling3D  (None, 4, 4, 2, 8)       0         
 )                                                               
                                                                 
 conv3d_1 (Conv3D)           (None, 4, 4, 2, 4)        868       
                                                                 
 max_pooling3d_1 (MaxPooling  (None, 2, 2, 1, 4)       0         
 3D)                                                             
                                                                 
 conv3d_2 (Conv3D)           (None, 2, 2, 1, 4)        436       
                                                                 
 up_sampling3d (UpSampling3D  (None, 4, 4, 2, 4)       0         
 )                                                               
                                                                 
 conv3d_3 (Conv3D)           (None, 4, 4, 2, 4)        436       
                                                                 
 up_sampling3d_1 (UpSampling  (None, 8, 8, 4, 4)       0         
 3D)                                                             
                                                                 
 conv3d_4 (Conv3D)           (None, 8, 8, 4, 8)        872       
                                                                 
 conv3d_5 (Conv3D)           (None, 8, 8, 4, 1)        217       
                                                                 
 cropping3d (Cropping3D)     (None, 7, 7, 4, 1)        0         
                                                                 
=================================================================
Total params: 3,053
Trainable params: 3,053
Non-trainable params: 0
_________________________________________________________________
Epoch 1/1000

Epoch 1: val_loss improved from inf to 0.15575, saving model to ./CAE_models/CAE_spk/ckpt
33/33 - 18s - loss: 0.1670 - val_loss: 0.1558 - 18s/epoch - 556ms/step
…
33/33 - 17s - loss: 0.0951 - val_loss: 0.0950 - 17s/epoch - 514ms/step
Epoch 697/1000

Epoch 697: val_loss did not improve from 0.09493
33/33 - 17s - loss: 0.0951 - val_loss: 0.0951 - 17s/epoch - 514ms/step
Epoch 697: early stopping
Model: "model_2"
_________________________________________________________________
 Layer (type)                Output Shape              Param #   
=================================================================
 input_3 (InputLayer)        [(None, 7, 7, 4, 1)]      0         
                                                                 
 zero_padding3d (ZeroPadding  (None, 8, 8, 4, 1)       0         
 3D)                                                             
                                                                 
 conv3d (Conv3D)             (None, 8, 8, 4, 8)        224       
                                                                 
 max_pooling3d (MaxPooling3D  (None, 4, 4, 2, 8)       0         
 )                                                               
                                                                 
 conv3d_1 (Conv3D)           (None, 4, 4, 2, 4)        868       
                                                                 
 max_pooling3d_1 (MaxPooling  (None, 2, 2, 1, 4)       0         
 3D)                                                             
                                                                 
 conv3d_2 (Conv3D)           (None, 2, 2, 1, 4)        436       
                                                                 
=================================================================
Total params: 1,528
Trainable params: 1,528
Non-trainable params: 0
_________________________________________________________________
Performance on train dataset (mean error): 0.0012226769467815757
Model: "model_3"
_________________________________________________________________
 Layer (type)                Output Shape              Param #   
=================================================================
 input_3 (InputLayer)        [(None, 7, 7, 4, 1)]      0         
                                                                 
 zero_padding3d (ZeroPadding  (None, 8, 8, 4, 1)       0         
 3D)                                                             
                                                                 
 conv3d (Conv3D)             (None, 8, 8, 4, 8)        224       
                                                                 
 max_pooling3d (MaxPooling3D  (None, 4, 4, 2, 8)       0         
 )                                                               
                                                                 
 conv3d_1 (Conv3D)           (None, 4, 4, 2, 4)        868       
                                                                 
 max_pooling3d_1 (MaxPooling  (None, 2, 2, 1, 4)       0         
 3D)                                                             
                                                                 
 conv3d_2 (Conv3D)           (None, 2, 2, 1, 4)        436       
                                                                 
=================================================================
Total params: 1,528
Trainable params: 1,528
Non-trainable params: 0
_________________________________________________________________
Performance on test dataset (mean error): 0.0026916628703475
