…
719  5.4200  0.392797  0.385994  0.384154  0.369108  0.357343  0.359024  0.370228  0.397599  0.389436  0.382393  0.366066  0.354462  ...  0.399920  0.398800  0.395358  0.389676  0.401761  0.417287  0.410884  0.406162  0.408163  0.406002  0.402801  0.415286  [[[[0.3927971335018382], [0.1595010944441253],...

[720 rows x 51 columns]
Size of dataset: (720, 50)
Model: "sequential_5"
_________________________________________________________________
 Layer (type)                Output Shape              Param #   
=================================================================
 zero_padding3d_1 (ZeroPaddi  (None, 8, 8, 4, 1)       0         
 ng3D)                                                           
                                                                 
 conv3d_6 (Conv3D)           (None, 8, 8, 4, 8)        224       
                                                                 
 max_pooling3d_2 (MaxPooling  (None, 4, 4, 2, 8)       0         
 3D)                                                             
                                                                 
 conv3d_7 (Conv3D)           (None, 4, 4, 2, 4)        868       
                                                                 
 max_pooling3d_3 (MaxPooling  (None, 2, 2, 1, 4)       0         
 3D)                                                             
                                                                 
 conv3d_8 (Conv3D)           (None, 2, 2, 1, 4)        436       
                                                                 
 up_sampling3d_2 (UpSampling  (None, 4, 4, 2, 4)       0         
 3D)                                                             
                                                                 
 conv3d_9 (Conv3D)           (None, 4, 4, 2, 4)        436       
                                                                 
 up_sampling3d_3 (UpSampling  (None, 8, 8, 4, 4)       0         
 3D)                                                             
                                                                 
 conv3d_10 (Conv3D)          (None, 8, 8, 4, 8)        872       
                                                                 
 conv3d_11 (Conv3D)          (None, 8, 8, 4, 1)        217       
                                                                 
 cropping3d_1 (Cropping3D)   (None, 7, 7, 3, 1)        0         
                                                                 
=================================================================
Total params: 3,053
Trainable params: 3,053
Non-trainable params: 0
_________________________________________________________________
Epoch 1/1000

Epoch 1: val_loss improved from inf to 0.08559, saving model to ./CAE_models/CAE_spk/ckpt
4/4 - 3s - loss: 0.1244 - val_loss: 0.0856 - 3s/epoch - 713ms/step
…
13133  5.043  0.254342  0.251381  0.251861  0.245858  0.238816  0.231212  0.229132  0.248579  0.245698  0.243778  0.238976  0.234574  ...  0.249700  0.257943  0.262105  0.255142  0.242337  0.245378  0.247219  0.248900  0.254822  0.256663  0.246339  0.228972  [[[[0.2543417238721661], [0.1376932929543887],...

[13129 rows x 51 columns]
Size of dataset: (13129, 50)
Model: "model_4"
_________________________________________________________________
 Layer (type)                Output Shape              Param #   
=================================================================
 input_6 (InputLayer)        [(None, 7, 7, 3, 1)]      0         
                                                                 
 zero_padding3d_1 (ZeroPaddi  (None, 8, 8, 4, 1)       0         
 ng3D)                                                           
                                                                 
 conv3d_6 (Conv3D)           (None, 8, 8, 4, 8)        224       
                                                                 
 max_pooling3d_2 (MaxPooling  (None, 4, 4, 2, 8)       0         
 3D)                                                             
                                                                 
 conv3d_7 (Conv3D)           (None, 4, 4, 2, 4)        868       
                                                                 
 max_pooling3d_3 (MaxPooling  (None, 2, 2, 1, 4)       0         
 3D)                                                             
                                                                 
 conv3d_8 (Conv3D)           (None, 2, 2, 1, 4)        436       
                                                                 
=================================================================
Total params: 1,528
Trainable params: 1,528
Non-trainable params: 0
_________________________________________________________________
Performance on train dataset (mean error): 0.0008405694388784468
Model: "model_5"
_________________________________________________________________
 Layer (type)                Output Shape              Param #   
=================================================================
 input_6 (InputLayer)        [(None, 7, 7, 3, 1)]      0         
                                                                 
 zero_padding3d_1 (ZeroPaddi  (None, 8, 8, 4, 1)       0         
 ng3D)                                                           
                                                                 
 conv3d_6 (Conv3D)           (None, 8, 8, 4, 8)        224       
                                                                 
 max_pooling3d_2 (MaxPooling  (None, 4, 4, 2, 8)       0         
 3D)                                                             
                                                                 
 conv3d_7 (Conv3D)           (None, 4, 4, 2, 4)        868       
                                                                 
 max_pooling3d_3 (MaxPooling  (None, 2, 2, 1, 4)       0         
 3D)                                                             
                                                                 
 conv3d_8 (Conv3D)           (None, 2, 2, 1, 4)        436       
                                                                 
=================================================================
Total params: 1,528
Trainable params: 1,528
Non-trainable params: 0
_________________________________________________________________
Performance on test dataset (mean error): 0.0007192886550910771
            label    HH_0_0    HH_0_1    HH_0_2    HH_0_3  HH_0_4  HH_0_5  HH_0_6    HH_1_0    HH_1_1    HH_1_2    HH_1_3  HH_1_4  HH_1_5  ...    HH_5_1    HH_5_2    HH_5_3  HH_5_4  HH_5_5  HH_5_6    HH_6_0    HH_6_1    HH_6_2    HH_6_3  HH_6_4  HH_6_5  HH_6_6                                                CNN
…
