*************************** Fold #: 1 ***************************
Model: "model"
_________________________________________________________________
Layer (type)                 Output Shape              Param #   
=================================================================
cat (InputLayer)             [(None, 13)]              0         
_________________________________________________________________
dense (Dense)                (None, 9)                 126       
_________________________________________________________________
dense_1 (Dense)              (None, 9)                 90        
_________________________________________________________________
dense_2 (Dense)              (None, 9)                 90        
_________________________________________________________________
dense_3 (Dense)              (None, 9)                 90        
_________________________________________________________________
dense_4 (Dense)              (None, 9)                 90        
_________________________________________________________________
dense_5 (Dense)              (None, 1)                 10        
=================================================================
Total params: 496
Trainable params: 496
Non-trainable params: 0
_________________________________________________________________
Epoch 1/10000
4/4 - 0s - loss: 34703.0508 - val_loss: 35603.8906

Epoch 00001: val_loss improved from inf to 35603.89062, saving model to ./results/NN_rms_regr/FYI/aggr/ckpt_1
Epoch 2/10000
4/4 - 0s - loss: 34701.7109 - val_loss: 35602.4883
…
