Model: "model_2"
_________________________________________________________________
 Layer (type)                Output Shape              Param #   
=================================================================
 input_4 (InputLayer)        [(None, 7, 7, 4, 1)]      0         
                                                                 
 zero_padding3d_1 (ZeroPaddi  (None, 8, 8, 4, 1)       0         
 ng3D)                                                           
                                                                 
 conv3d_6 (Conv3D)           (None, 8, 8, 4, 8)        224       
                                                                 
 max_pooling3d_2 (MaxPooling  (None, 4, 4, 2, 8)       0         
 3D)                                                             
                                                                 
 conv3d_7 (Conv3D)           (None, 4, 4, 2, 4)        868       
                                                                 
 max_pooling3d_3 (MaxPooling  (None, 2, 2, 1, 4)       0         
 3D)                                                             
                                                                 
 conv3d_8 (Conv3D)           (None, 2, 2, 1, 4)        436       
                                                                 
=================================================================
Total params: 1,528
Trainable params: 1,528
Non-trainable params: 0
_________________________________________________________________
Performance on train dataset (mean error): 0.0002627630310598761
Model: "model_3"
_________________________________________________________________
 Layer (type)                Output Shape              Param #   
=================================================================
 input_4 (InputLayer)        [(None, 7, 7, 4, 1)]      0         
                                                                 
 zero_padding3d_1 (ZeroPaddi  (None, 8, 8, 4, 1)       0         
 ng3D)                                                           
                                                                 
 conv3d_6 (Conv3D)           (None, 8, 8, 4, 8)        224       
                                                                 
 max_pooling3d_2 (MaxPooling  (None, 4, 4, 2, 8)       0         
 3D)                                                             
                                                                 
 conv3d_7 (Conv3D)           (None, 4, 4, 2, 4)        868       
                                                                 
 max_pooling3d_3 (MaxPooling  (None, 2, 2, 1, 4)       0         
 3D)                                                             
                                                                 
 conv3d_8 (Conv3D)           (None, 2, 2, 1, 4)        436       
                                                                 
=================================================================
Total params: 1,528
Trainable params: 1,528
Non-trainable params: 0
_________________________________________________________________
Performance on test dataset (mean error): 0.0013574344338849187
