Model: "sequential_6"
_________________________________________________________________
Layer (type)                 Output Shape              Param #   
=================================================================
zero_padding3d_2 (ZeroPaddin (None, 8, 8, 8, 1)        0         
_________________________________________________________________
conv3d_12 (Conv3D)           (None, 8, 8, 8, 8)        224       
_________________________________________________________________
max_pooling3d_4 (MaxPooling3 (None, 4, 4, 4, 8)        0         
_________________________________________________________________
conv3d_13 (Conv3D)           (None, 4, 4, 4, 4)        868       
_________________________________________________________________
max_pooling3d_5 (MaxPooling3 (None, 2, 2, 2, 4)        0         
_________________________________________________________________
conv3d_14 (Conv3D)           (None, 2, 2, 2, 4)        436       
_________________________________________________________________
up_sampling3d_4 (UpSampling3 (None, 4, 4, 4, 4)        0         
_________________________________________________________________
conv3d_15 (Conv3D)           (None, 4, 4, 4, 4)        436       
_________________________________________________________________
up_sampling3d_5 (UpSampling3 (None, 8, 8, 8, 4)        0         
_________________________________________________________________
conv3d_16 (Conv3D)           (None, 8, 8, 8, 8)        872       
_________________________________________________________________
conv3d_17 (Conv3D)           (None, 8, 8, 8, 1)        217       
_________________________________________________________________
cropping3d_2 (Cropping3D)    (None, 7, 7, 6, 1)        0         
=================================================================
Total params: 3,053
Trainable params: 3,053
Non-trainable params: 0
_________________________________________________________________
Epoch 1/1000
13/13 - 6s - loss: 0.1061 - val_loss: 0.1748

Epoch 00001: val_loss improved from inf to 0.17484, saving model to ./CAE_models/rms_canny/ckpt
Epoch 2/1000
13/13 - 6s - loss: 0.1045 - val_loss: 0.1784
…
13/13 - 6s - loss: 0.0505 - val_loss: 0.0664

Epoch 00712: val_loss did not improve from 0.06536
Epoch 713/1000
13/13 - 6s - loss: 0.0505 - val_loss: 0.0661

Epoch 00713: val_loss did not improve from 0.06536
Epoch 00713: early stopping
Model: "model_4"
_________________________________________________________________
Layer (type)                 Output Shape              Param #   
=================================================================
input_7 (InputLayer)         [(None, 7, 7, 6, 1)]      0         
_________________________________________________________________
zero_padding3d_2 (ZeroPaddin (None, 8, 8, 8, 1)        0         
_________________________________________________________________
conv3d_12 (Conv3D)           (None, 8, 8, 8, 8)        224       
_________________________________________________________________
max_pooling3d_4 (MaxPooling3 (None, 4, 4, 4, 8)        0         
_________________________________________________________________
conv3d_13 (Conv3D)           (None, 4, 4, 4, 4)        868       
_________________________________________________________________
max_pooling3d_5 (MaxPooling3 (None, 2, 2, 2, 4)        0         
_________________________________________________________________
conv3d_14 (Conv3D)           (None, 2, 2, 2, 4)        436       
=================================================================
Total params: 1,528
Trainable params: 1,528
Non-trainable params: 0
_________________________________________________________________
Performance on train dataset (mean error): 0.0016660045366734266
Model: "model_5"
_________________________________________________________________
Layer (type)                 Output Shape              Param #   
=================================================================
input_7 (InputLayer)         [(None, 7, 7, 6, 1)]      0         
_________________________________________________________________
zero_padding3d_2 (ZeroPaddin (None, 8, 8, 8, 1)        0         
_________________________________________________________________
conv3d_12 (Conv3D)           (None, 8, 8, 8, 8)        224       
_________________________________________________________________
max_pooling3d_4 (MaxPooling3 (None, 4, 4, 4, 8)        0         
_________________________________________________________________
conv3d_13 (Conv3D)           (None, 4, 4, 4, 4)        868       
_________________________________________________________________
max_pooling3d_5 (MaxPooling3 (None, 2, 2, 2, 4)        0         
_________________________________________________________________
conv3d_14 (Conv3D)           (None, 2, 2, 2, 4)        436       
=================================================================
Total params: 1,528
Trainable params: 1,528
Non-trainable params: 0
_________________________________________________________________
Performance on test dataset (mean error): 0.03502534329891205
