*************************** Fold #: 1 ***************************
Model: "model"
_________________________________________________________________
Layer (type)                 Output Shape              Param #   
=================================================================
cat (InputLayer)             [(None, 25)]              0         
_________________________________________________________________
dense (Dense)                (None, 17)                442       
_________________________________________________________________
dense_1 (Dense)              (None, 17)                306       
_________________________________________________________________
dense_2 (Dense)              (None, 17)                306       
_________________________________________________________________
dense_3 (Dense)              (None, 17)                306       
_________________________________________________________________
dense_4 (Dense)              (None, 17)                306       
_________________________________________________________________
dense_5 (Dense)              (None, 1)                 18        
=================================================================
Total params: 1,684
Trainable params: 1,684
Non-trainable params: 0
_________________________________________________________________
Epoch 1/10000
4/4 - 0s - loss: 34573.6172 - val_loss: 36766.4375

Epoch 00001: val_loss improved from inf to 36766.43750, saving model to ./results/NN_rms_regr/FYI/GLCM/ckpt_1
Epoch 2/10000
4/4 - 0s - loss: 34571.8008 - val_loss: 36764.4648
…
