*************************** Fold #: 1 ***************************
Model: "model"
_________________________________________________________________
 Layer (type)                Output Shape              Param #   
=================================================================
 cat (InputLayer)            [(None, 24)]              0         
                                                                 
 dense (Dense)               (None, 16)                400       
                                                                 
 dense_1 (Dense)             (None, 16)                272       
                                                                 
 dense_2 (Dense)             (None, 16)                272       
                                                                 
 dense_3 (Dense)             (None, 16)                272       
                                                                 
 dense_4 (Dense)             (None, 16)                272       
                                                                 
 dense_5 (Dense)             (None, 1)                 17        
                                                                 
=================================================================
Total params: 1,505
Trainable params: 1,505
Non-trainable params: 0
_________________________________________________________________
Epoch 1/10000

Epoch 1: val_loss improved from inf to 152.69803, saving model to ./results/NN_rms_regr/FYI_MYI_likelihood/mixed/ckpt_1
…
