Model: "sequential_12"
_________________________________________________________________
Layer (type)                 Output Shape              Param #   
=================================================================
zero_padding3d_4 (ZeroPaddin (None, 8, 8, 8, 1)        0         
_________________________________________________________________
conv3d_28 (Conv3D)           (None, 8, 8, 8, 8)        224       
_________________________________________________________________
max_pooling3d_8 (MaxPooling3 (None, 4, 4, 4, 8)        0         
_________________________________________________________________
conv3d_29 (Conv3D)           (None, 4, 4, 4, 4)        868       
_________________________________________________________________
max_pooling3d_9 (MaxPooling3 (None, 2, 2, 2, 4)        0         
_________________________________________________________________
conv3d_30 (Conv3D)           (None, 2, 2, 2, 4)        436       
_________________________________________________________________
conv3d_31 (Conv3D)           (None, 2, 2, 2, 4)        436       
_________________________________________________________________
up_sampling3d_8 (UpSampling3 (None, 4, 4, 4, 4)        0         
_________________________________________________________________
conv3d_32 (Conv3D)           (None, 4, 4, 4, 4)        436       
_________________________________________________________________
up_sampling3d_9 (UpSampling3 (None, 8, 8, 8, 4)        0         
_________________________________________________________________
conv3d_33 (Conv3D)           (None, 8, 8, 8, 8)        872       
_________________________________________________________________
conv3d_34 (Conv3D)           (None, 8, 8, 8, 1)        145       
_________________________________________________________________
cropping3d_4 (Cropping3D)    (None, 7, 7, 6, 1)        0         
=================================================================
Total params: 3,417
Trainable params: 3,417
Non-trainable params: 0
_________________________________________________________________
Epoch 1/1000
14/14 - 7s - loss: 0.0224 - val_loss: 0.1141

Epoch 00001: val_loss improved from inf to 0.11413, saving model to ./CAE_models/thk_SOBEL/ckpt
Epoch 2/1000
14/14 - 7s - loss: 0.0203 - val_loss: 0.1336
…
14/14 - 7s - loss: 6.2427e-04 - val_loss: 0.0291

Epoch 00457: val_loss did not improve from 0.02897
Epoch 458/1000
14/14 - 7s - loss: 6.4108e-04 - val_loss: 0.0294

Epoch 00458: val_loss did not improve from 0.02897
Epoch 00458: early stopping
Model: "model_8"
_________________________________________________________________
Layer (type)                 Output Shape              Param #   
=================================================================
input_13 (InputLayer)        [(None, 7, 7, 6, 1)]      0         
_________________________________________________________________
zero_padding3d_4 (ZeroPaddin (None, 8, 8, 8, 1)        0         
_________________________________________________________________
conv3d_28 (Conv3D)           (None, 8, 8, 8, 8)        224       
_________________________________________________________________
max_pooling3d_8 (MaxPooling3 (None, 4, 4, 4, 8)        0         
_________________________________________________________________
conv3d_29 (Conv3D)           (None, 4, 4, 4, 4)        868       
_________________________________________________________________
max_pooling3d_9 (MaxPooling3 (None, 2, 2, 2, 4)        0         
_________________________________________________________________
conv3d_30 (Conv3D)           (None, 2, 2, 2, 4)        436       
=================================================================
Total params: 1,528
Trainable params: 1,528
Non-trainable params: 0
_________________________________________________________________
Performance on train dataset (mean error): 0.006996734067797661
Model: "model_9"
_________________________________________________________________
Layer (type)                 Output Shape              Param #   
=================================================================
input_13 (InputLayer)        [(None, 7, 7, 6, 1)]      0         
_________________________________________________________________
zero_padding3d_4 (ZeroPaddin (None, 8, 8, 8, 1)        0         
_________________________________________________________________
conv3d_28 (Conv3D)           (None, 8, 8, 8, 8)        224       
_________________________________________________________________
max_pooling3d_8 (MaxPooling3 (None, 4, 4, 4, 8)        0         
_________________________________________________________________
conv3d_29 (Conv3D)           (None, 4, 4, 4, 4)        868       
_________________________________________________________________
max_pooling3d_9 (MaxPooling3 (None, 2, 2, 2, 4)        0         
_________________________________________________________________
conv3d_30 (Conv3D)           (None, 2, 2, 2, 4)        436       
=================================================================
Total params: 1,528
Trainable params: 1,528
Non-trainable params: 0
_________________________________________________________________
Performance on test dataset (mean error): 0.07782462984323502
