Model: "sequential_3"
_________________________________________________________________
Layer (type)                 Output Shape              Param #   
=================================================================
zero_padding3d_1 (ZeroPaddin (None, 8, 8, 8, 1)        0         
_________________________________________________________________
conv3d_6 (Conv3D)            (None, 8, 8, 8, 8)        224       
_________________________________________________________________
max_pooling3d_2 (MaxPooling3 (None, 4, 4, 4, 8)        0         
_________________________________________________________________
conv3d_7 (Conv3D)            (None, 4, 4, 4, 4)        868       
_________________________________________________________________
max_pooling3d_3 (MaxPooling3 (None, 2, 2, 2, 4)        0         
_________________________________________________________________
conv3d_8 (Conv3D)            (None, 2, 2, 2, 4)        436       
_________________________________________________________________
up_sampling3d_2 (UpSampling3 (None, 4, 4, 4, 4)        0         
_________________________________________________________________
conv3d_9 (Conv3D)            (None, 4, 4, 4, 4)        436       
_________________________________________________________________
up_sampling3d_3 (UpSampling3 (None, 8, 8, 8, 4)        0         
_________________________________________________________________
conv3d_10 (Conv3D)           (None, 8, 8, 8, 8)        872       
_________________________________________________________________
conv3d_11 (Conv3D)           (None, 8, 8, 8, 1)        217       
_________________________________________________________________
cropping3d_1 (Cropping3D)    (None, 7, 7, 6, 1)        0         
=================================================================
Total params: 3,053
Trainable params: 3,053
Non-trainable params: 0
_________________________________________________________________
Epoch 1/1000
14/14 - 7s - loss: 0.0204 - val_loss: 0.1324

Epoch 00001: val_loss improved from inf to 0.13240, saving model to ./CAE_models/thk_SOBEL/ckpt
Epoch 2/1000
14/14 - 7s - loss: 0.0175 - val_loss: 0.1535
…
14/14 - 7s - loss: 6.4219e-04 - val_loss: 0.0257

Epoch 00363: val_loss did not improve from 0.02531
Epoch 364/1000
14/14 - 7s - loss: 6.2333e-04 - val_loss: 0.0257

Epoch 00364: val_loss did not improve from 0.02531
Epoch 00364: early stopping
Model: "model_2"
_________________________________________________________________
Layer (type)                 Output Shape              Param #   
=================================================================
input_4 (InputLayer)         [(None, 7, 7, 6, 1)]      0         
_________________________________________________________________
zero_padding3d_1 (ZeroPaddin (None, 8, 8, 8, 1)        0         
_________________________________________________________________
conv3d_6 (Conv3D)            (None, 8, 8, 8, 8)        224       
_________________________________________________________________
max_pooling3d_2 (MaxPooling3 (None, 4, 4, 4, 8)        0         
_________________________________________________________________
conv3d_7 (Conv3D)            (None, 4, 4, 4, 4)        868       
_________________________________________________________________
max_pooling3d_3 (MaxPooling3 (None, 2, 2, 2, 4)        0         
_________________________________________________________________
conv3d_8 (Conv3D)            (None, 2, 2, 2, 4)        436       
=================================================================
Total params: 1,528
Trainable params: 1,528
Non-trainable params: 0
_________________________________________________________________
Performance on train dataset (mean error): 0.004400213714689016
Model: "model_3"
_________________________________________________________________
Layer (type)                 Output Shape              Param #   
=================================================================
input_4 (InputLayer)         [(None, 7, 7, 6, 1)]      0         
_________________________________________________________________
zero_padding3d_1 (ZeroPaddin (None, 8, 8, 8, 1)        0         
_________________________________________________________________
conv3d_6 (Conv3D)            (None, 8, 8, 8, 8)        224       
_________________________________________________________________
max_pooling3d_2 (MaxPooling3 (None, 4, 4, 4, 8)        0         
_________________________________________________________________
conv3d_7 (Conv3D)            (None, 4, 4, 4, 4)        868       
_________________________________________________________________
max_pooling3d_3 (MaxPooling3 (None, 2, 2, 2, 4)        0         
_________________________________________________________________
conv3d_8 (Conv3D)            (None, 2, 2, 2, 4)        436       
=================================================================
Total params: 1,528
Trainable params: 1,528
Non-trainable params: 0
_________________________________________________________________
Performance on test dataset (mean error): 0.0834607407450676
