*************************** Fold #: 1 ***************************
Model: "model"
_________________________________________________________________
Layer (type)                 Output Shape              Param #   
=================================================================
cat (InputLayer)             [(None, 35)]              0         
_________________________________________________________________
dense (Dense)                (None, 24)                864       
_________________________________________________________________
dense_1 (Dense)              (None, 24)                600       
_________________________________________________________________
dense_2 (Dense)              (None, 24)                600       
_________________________________________________________________
dense_3 (Dense)              (None, 24)                600       
_________________________________________________________________
dense_4 (Dense)              (None, 24)                600       
_________________________________________________________________
dense_5 (Dense)              (None, 1)                 25        
=================================================================
Total params: 3,289
Trainable params: 3,289
Non-trainable params: 0
_________________________________________________________________
Epoch 1/10000
8/8 - 0s - loss: 37543.2148 - val_loss: 35248.2422

Epoch 00001: val_loss improved from inf to 35248.24219, saving model to ./results/NN_rms_regr/FYI_MYI/SOBEL_CAE/ckpt_1
Epoch 2/10000
…
