*************************** Fold #: 1 ***************************
Model: "model"
_________________________________________________________________
Layer (type)                 Output Shape              Param #   
=================================================================
cat (InputLayer)             [(None, 39)]              0         
_________________________________________________________________
dense (Dense)                (None, 26)                1040      
_________________________________________________________________
dense_1 (Dense)              (None, 26)                702       
_________________________________________________________________
dense_2 (Dense)              (None, 26)                702       
_________________________________________________________________
dense_3 (Dense)              (None, 26)                702       
_________________________________________________________________
dense_4 (Dense)              (None, 26)                702       
_________________________________________________________________
dense_5 (Dense)              (None, 1)                 27        
=================================================================
Total params: 3,875
Trainable params: 3,875
Non-trainable params: 0
_________________________________________________________________
Epoch 1/10000
8/8 - 0s - loss: 37213.1992 - val_loss: 38215.1289

Epoch 00001: val_loss improved from inf to 38215.12891, saving model to ./results/NN_rms_regr/FYI_MYI/SOBEL_CAE/ckpt_1
Epoch 2/10000
…
