Before oversampling: Counter({1: 15412, 2: 9154, 3: 3795, 0: 2180, 4: 1567})
After oversampling: Counter({0: 1567, 1: 1567, 2: 1567, 3: 1567, 4: 1567})
*************************** Fold #: 1 ***************************
Model: "model"
_________________________________________________________________
 Layer (type)                Output Shape              Param #   
=================================================================
 cat (InputLayer)            [(None, 6)]               0         
                                                                 
 dense (Dense)               (None, 10)                70        
                                                                 
 dense_1 (Dense)             (None, 10)                110       
                                                                 
 dense_2 (Dense)             (None, 10)                110       
                                                                 
 dense_3 (Dense)             (None, 10)                110       
                                                                 
 dense_4 (Dense)             (None, 10)                110       
                                                                 
 dense_5 (Dense)             (None, 1)                 11        
                                                                 
=================================================================
Total params: 521
Trainable params: 521
Non-trainable params: 0
_________________________________________________________________
Epoch 1/10000

Epoch 1: val_loss improved from inf to 10.98803, saving model to ./results/NN_thk_regr/FYI_MYI//backscatter/ckpt_1
…
