*************************** Fold #: 1 ***************************
Model: "model"
_________________________________________________________________
 Layer (type)                Output Shape              Param #   
=================================================================
 cat (InputLayer)            [(None, 3)]               0         
                                                                 
 dense (Dense)               (None, 6)                 24        
                                                                 
 dense_1 (Dense)             (None, 6)                 42        
                                                                 
 dense_2 (Dense)             (None, 6)                 42        
                                                                 
 dense_3 (Dense)             (None, 6)                 42        
                                                                 
 dense_4 (Dense)             (None, 6)                 42        
                                                                 
 dense_5 (Dense)             (None, 1)                 7         
                                                                 
=================================================================
Total params: 199
Trainable params: 199
Non-trainable params: 0
_________________________________________________________________
Epoch 1/10000

Epoch 1: val_loss improved from inf to 9.96726, saving model to ./results/NN_thk_regr/FYI_MYI//backscatter/ckpt_1
…
