…
 Box Stats: [1.089   2.02125 2.552   3.42225 5.517  ]
 Number of samples: 2970

After SMOTE
 Box Stats: [ 1.089    2.492    4.365    7.13625 13.851  ]
 Number of samples: 4455

*************************** Fold #: 1 ***************************
Model: "model"
_________________________________________________________________
 Layer (type)                Output Shape              Param #   
=================================================================
 cat (InputLayer)            [(None, 6)]               0         
                                                                 
 dense (Dense)               (None, 10)                70        
                                                                 
 dense_1 (Dense)             (None, 10)                110       
                                                                 
 dense_2 (Dense)             (None, 10)                110       
                                                                 
 dense_3 (Dense)             (None, 10)                110       
                                                                 
 dense_4 (Dense)             (None, 10)                110       
                                                                 
 dense_5 (Dense)             (None, 1)                 11        
                                                                 
=================================================================
Total params: 521
Trainable params: 521
Non-trainable params: 0
_________________________________________________________________
Epoch 1/10000

Epoch 1: val_loss improved from inf to 32.43295, saving model to ./results/NN_thk_regr/FYI_MYI//backscatter/ckpt_1
…
