*************************** Fold #: 1 ***************************
Model: "model"
_________________________________________________________________
 Layer (type)                Output Shape              Param #   
=================================================================
 cat (InputLayer)            [(None, 19)]              0         
                                                                 
 dense (Dense)               (None, 13)                260       
                                                                 
 dense_1 (Dense)             (None, 13)                182       
                                                                 
 dense_2 (Dense)             (None, 13)                182       
                                                                 
 dense_3 (Dense)             (None, 13)                182       
                                                                 
 dense_4 (Dense)             (None, 13)                182       
                                                                 
 dense_5 (Dense)             (None, 1)                 14        
                                                                 
=================================================================
Total params: 1,002
Trainable params: 1,002
Non-trainable params: 0
_________________________________________________________________
Epoch 1/10000

Epoch 1: val_loss improved from inf to 43014.19531, saving model to ./results/NN_rms_regr/FYI_MYI/CAE_spk/ckpt_1
…
