Before oversampling: Counter({1: 15399, 2: 9149, 3: 3794, 0: 2178, 4: 1567})
After oversampling: Counter({0: 1567, 1: 1567, 2: 1567, 3: 1567, 4: 1567})
*************************** Fold #: 1 ***************************
Model: "model"
_________________________________________________________________
 Layer (type)                Output Shape              Param #   
=================================================================
 cat (InputLayer)            [(None, 22)]              0         
                                                                 
 dense (Dense)               (None, 15)                345       
                                                                 
 dense_1 (Dense)             (None, 15)                240       
                                                                 
 dense_2 (Dense)             (None, 15)                240       
                                                                 
 dense_3 (Dense)             (None, 15)                240       
                                                                 
 dense_4 (Dense)             (None, 15)                240       
                                                                 
 dense_5 (Dense)             (None, 1)                 16        
                                                                 
=================================================================
Total params: 1,321
Trainable params: 1,321
Non-trainable params: 0
_________________________________________________________________
Epoch 1/10000

Epoch 1: val_loss improved from inf to 11.03333, saving model to ./results/NN_thk_regr/FYI_MYI//CAE_spk/ckpt_1
…
