*************************** Fold #: 1 ***************************
Model: "model"
_________________________________________________________________
Layer (type)                 Output Shape              Param #   
=================================================================
cat (InputLayer)             [(None, 47)]              0         
_________________________________________________________________
dense (Dense)                (None, 32)                1536      
_________________________________________________________________
dense_1 (Dense)              (None, 32)                1056      
_________________________________________________________________
dense_2 (Dense)              (None, 32)                1056      
_________________________________________________________________
dense_3 (Dense)              (None, 32)                1056      
_________________________________________________________________
dense_4 (Dense)              (None, 32)                1056      
_________________________________________________________________
dense_5 (Dense)              (None, 1)                 33        
=================================================================
Total params: 5,793
Trainable params: 5,793
Non-trainable params: 0
_________________________________________________________________
Epoch 1/10000
9/9 - 0s - loss: 9.2368 - val_loss: 9.2570

Epoch 00001: val_loss improved from inf to 9.25700, saving model to ./results/NN_thk_regr/FYI_MYI_likelihood//canny_CAE/ckpt_1
Epoch 2/10000
…
