Before oversampling: Counter({0: 14482, 1: 10480, 2: 6774, 3: 3386, 4: 1429})
After oversampling: Counter({0: 1429, 1: 1429, 2: 1429, 3: 1429, 4: 1429})
*************************** Fold #: 1 ***************************
Model: "model"
_________________________________________________________________
 Layer (type)                Output Shape              Param #   
=================================================================
 cat (InputLayer)            [(None, 22)]              0         
                                                                 
 dense (Dense)               (None, 15)                345       
                                                                 
 dense_1 (Dense)             (None, 15)                240       
                                                                 
 dense_2 (Dense)             (None, 15)                240       
                                                                 
 dense_3 (Dense)             (None, 15)                240       
                                                                 
 dense_4 (Dense)             (None, 15)                240       
                                                                 
 dense_5 (Dense)             (None, 1)                 16        
                                                                 
=================================================================
Total params: 1,321
Trainable params: 1,321
Non-trainable params: 0
_________________________________________________________________
Epoch 1/10000

Epoch 1: val_loss improved from inf to 62886.28906, saving model to ./results/NN_rms_regr/FYI_MYI/mixed/ckpt_1
…
