*************************** Fold #: 1 ***************************
Model: "sequential"
_________________________________________________________________
Layer (type)                 Output Shape              Param #   
=================================================================
dense (Dense)                (None, 20)                600       
_________________________________________________________________
dense_1 (Dense)              (None, 20)                420       
_________________________________________________________________
dense_2 (Dense)              (None, 20)                420       
_________________________________________________________________
dense_3 (Dense)              (None, 20)                420       
_________________________________________________________________
dense_4 (Dense)              (None, 20)                420       
_________________________________________________________________
dense_5 (Dense)              (None, 1)                 21        
=================================================================
Total params: 2,301
Trainable params: 2,301
Non-trainable params: 0
_________________________________________________________________
Epoch 1/10000
9/9 - 0s - loss: 9.2223 - val_loss: 9.4290

Epoch 00001: val_loss improved from inf to 9.42903, saving model to ./results/NN_thk_regr/FYI_MYI/theta_CAE/ckpt_1
Epoch 2/10000
9/9 - 0s - loss: 9.1311 - val_loss: 9.3226
…
