…
429})
After oversampling: Counter({0: 1429, 1: 1429, 2: 1429, 3: 1429, 4: 1429})
Before oversampling: Counter({0: 4664, 1: 2475, 2: 1573, 3: 852, 4: 366})
After oversampling: Counter({0: 366, 1: 366, 2: 366, 3: 366, 4: 366})
Model: "model"
_________________________________________________________________
 Layer (type)                Output Shape              Param #   
=================================================================
 input_10 (InputLayer)       [(None, 7, 7, 4, 1)]      0         
                                                                 
 zero_padding3d_3 (ZeroPaddi  (None, 8, 8, 4, 1)       0         
 ng3D)                                                           
                                                                 
 conv3d_18 (Conv3D)          (None, 8, 8, 4, 8)        224       
                                                                 
 max_pooling3d_6 (MaxPooling  (None, 4, 4, 2, 8)       0         
 3D)                                                             
                                                                 
 conv3d_19 (Conv3D)          (None, 4, 4, 2, 4)        868       
                                                                 
 max_pooling3d_7 (MaxPooling  (None, 2, 2, 1, 4)       0         
 3D)                                                             
                                                                 
 conv3d_20 (Conv3D)          (None, 2, 2, 1, 4)        436       
                                                                 
=================================================================
Total params: 1,528
Trainable params: 1,528
Non-trainable params: 0
_________________________________________________________________
Performance on train dataset (mean error): 0.005288821645081043
Model: "model_1"
_________________________________________________________________
 Layer (type)                Output Shape              Param #   
=================================================================
 input_10 (InputLayer)       [(None, 7, 7, 4, 1)]      0         
                                                                 
 zero_padding3d_3 (ZeroPaddi  (None, 8, 8, 4, 1)       0         
 ng3D)                                                           
                                                                 
 conv3d_18 (Conv3D)          (None, 8, 8, 4, 8)        224       
                                                                 
 max_pooling3d_6 (MaxPooling  (None, 4, 4, 2, 8)       0         
 3D)                                                             
                                                                 
 conv3d_19 (Conv3D)          (None, 4, 4, 2, 4)        868       
                                                                 
 max_pooling3d_7 (MaxPooling  (None, 2, 2, 1, 4)       0         
 3D)                                                             
                                                                 
 conv3d_20 (Conv3D)          (None, 2, 2, 1, 4)        436       
                                                                 
=================================================================
Total params: 1,528
Trainable params: 1,528
Non-trainable params: 0
_________________________________________________________________
Performance on test dataset (mean error): 0.003515962278470397
