Model: "sequential_9"
_________________________________________________________________
Layer (type)                 Output Shape              Param #   
=================================================================
zero_padding3d_3 (ZeroPaddin (None, 8, 8, 4, 1)        0         
_________________________________________________________________
conv3d_21 (Conv3D)           (None, 8, 8, 4, 8)        224       
_________________________________________________________________
max_pooling3d_6 (MaxPooling3 (None, 4, 4, 2, 8)        0         
_________________________________________________________________
conv3d_22 (Conv3D)           (None, 4, 4, 2, 4)        868       
_________________________________________________________________
max_pooling3d_7 (MaxPooling3 (None, 2, 2, 1, 4)        0         
_________________________________________________________________
conv3d_23 (Conv3D)           (None, 2, 2, 1, 4)        436       
_________________________________________________________________
conv3d_24 (Conv3D)           (None, 2, 2, 1, 4)        436       
_________________________________________________________________
up_sampling3d_6 (UpSampling3 (None, 4, 4, 2, 4)        0         
_________________________________________________________________
conv3d_25 (Conv3D)           (None, 4, 4, 2, 4)        436       
_________________________________________________________________
up_sampling3d_7 (UpSampling3 (None, 8, 8, 4, 4)        0         
_________________________________________________________________
conv3d_26 (Conv3D)           (None, 8, 8, 4, 8)        872       
_________________________________________________________________
conv3d_27 (Conv3D)           (None, 8, 8, 4, 1)        145       
_________________________________________________________________
cropping3d_3 (Cropping3D)    (None, 7, 7, 2, 1)        0         
=================================================================
Total params: 3,417
Trainable params: 3,417
Non-trainable params: 0
_________________________________________________________________
Epoch 1/1000
14/14 - 4s - loss: 0.0157 - val_loss: 0.0185

Epoch 00001: val_loss improved from inf to 0.01852, saving model to ./CAE_models/thk/ckpt
Epoch 2/1000
14/14 - 3s - loss: 0.0133 - val_loss: 0.0151
…
14/14 - 3s - loss: 4.8260e-04 - val_loss: 7.3392e-04

Epoch 00999: val_loss did not improve from 0.00073
Epoch 1000/1000
14/14 - 3s - loss: 5.0209e-04 - val_loss: 8.1687e-04

Epoch 01000: val_loss did not improve from 0.00073
Model: "model_6"
_________________________________________________________________
Layer (type)                 Output Shape              Param #   
=================================================================
input_10 (InputLayer)        [(None, 7, 7, 2, 1)]      0         
_________________________________________________________________
zero_padding3d_3 (ZeroPaddin (None, 8, 8, 4, 1)        0         
_________________________________________________________________
conv3d_21 (Conv3D)           (None, 8, 8, 4, 8)        224       
_________________________________________________________________
max_pooling3d_6 (MaxPooling3 (None, 4, 4, 2, 8)        0         
_________________________________________________________________
conv3d_22 (Conv3D)           (None, 4, 4, 2, 4)        868       
_________________________________________________________________
max_pooling3d_7 (MaxPooling3 (None, 2, 2, 1, 4)        0         
_________________________________________________________________
conv3d_23 (Conv3D)           (None, 2, 2, 1, 4)        436       
=================================================================
Total params: 1,528
Trainable params: 1,528
Non-trainable params: 0
_________________________________________________________________
Performance on train dataset (mean error): 0.000587070535402745
Model: "model_7"
_________________________________________________________________
Layer (type)                 Output Shape              Param #   
=================================================================
input_10 (InputLayer)        [(None, 7, 7, 2, 1)]      0         
_________________________________________________________________
zero_padding3d_3 (ZeroPaddin (None, 8, 8, 4, 1)        0         
_________________________________________________________________
conv3d_21 (Conv3D)           (None, 8, 8, 4, 8)        224       
_________________________________________________________________
max_pooling3d_6 (MaxPooling3 (None, 4, 4, 2, 8)        0         
_________________________________________________________________
conv3d_22 (Conv3D)           (None, 4, 4, 2, 4)        868       
_________________________________________________________________
max_pooling3d_7 (MaxPooling3 (None, 2, 2, 1, 4)        0         
_________________________________________________________________
conv3d_23 (Conv3D)           (None, 2, 2, 1, 4)        436       
=================================================================
Total params: 1,528
Trainable params: 1,528
Non-trainable params: 0
_________________________________________________________________
Performance on test dataset (mean error): 0.0007237365352921188
