Model: "sequential_9"
_________________________________________________________________
Layer (type)                 Output Shape              Param #   
=================================================================
zero_padding3d_3 (ZeroPaddin (None, 8, 8, 4, 1)        0         
_________________________________________________________________
conv3d_18 (Conv3D)           (None, 8, 8, 4, 8)        224       
_________________________________________________________________
max_pooling3d_6 (MaxPooling3 (None, 4, 4, 2, 8)        0         
_________________________________________________________________
conv3d_19 (Conv3D)           (None, 4, 4, 2, 4)        868       
_________________________________________________________________
max_pooling3d_7 (MaxPooling3 (None, 2, 2, 1, 4)        0         
_________________________________________________________________
conv3d_20 (Conv3D)           (None, 2, 2, 1, 4)        436       
_________________________________________________________________
up_sampling3d_6 (UpSampling3 (None, 4, 4, 2, 4)        0         
_________________________________________________________________
conv3d_21 (Conv3D)           (None, 4, 4, 2, 4)        436       
_________________________________________________________________
up_sampling3d_7 (UpSampling3 (None, 8, 8, 4, 4)        0         
_________________________________________________________________
conv3d_22 (Conv3D)           (None, 8, 8, 4, 8)        872       
_________________________________________________________________
conv3d_23 (Conv3D)           (None, 8, 8, 4, 1)        217       
_________________________________________________________________
cropping3d_3 (Cropping3D)    (None, 7, 7, 4, 1)        0         
=================================================================
Total params: 3,053
Trainable params: 3,053
Non-trainable params: 0
_________________________________________________________________
Epoch 1/1000
14/14 - 4s - loss: 0.0328 - val_loss: 0.1529

Epoch 00001: val_loss improved from inf to 0.15292, saving model to ./CAE_models/thk/ckpt
Epoch 2/1000
14/14 - 4s - loss: 0.0288 - val_loss: 0.1813
…
14/14 - 4s - loss: 5.4645e-04 - val_loss: 0.0316

Epoch 00326: val_loss did not improve from 0.03060
Epoch 327/1000
14/14 - 4s - loss: 5.4075e-04 - val_loss: 0.0316

Epoch 00327: val_loss did not improve from 0.03060
Epoch 00327: early stopping
Model: "model_6"
_________________________________________________________________
Layer (type)                 Output Shape              Param #   
=================================================================
input_10 (InputLayer)        [(None, 7, 7, 4, 1)]      0         
_________________________________________________________________
zero_padding3d_3 (ZeroPaddin (None, 8, 8, 4, 1)        0         
_________________________________________________________________
conv3d_18 (Conv3D)           (None, 8, 8, 4, 8)        224       
_________________________________________________________________
max_pooling3d_6 (MaxPooling3 (None, 4, 4, 2, 8)        0         
_________________________________________________________________
conv3d_19 (Conv3D)           (None, 4, 4, 2, 4)        868       
_________________________________________________________________
max_pooling3d_7 (MaxPooling3 (None, 2, 2, 1, 4)        0         
_________________________________________________________________
conv3d_20 (Conv3D)           (None, 2, 2, 1, 4)        436       
=================================================================
Total params: 1,528
Trainable params: 1,528
Non-trainable params: 0
_________________________________________________________________
Performance on train dataset (mean error): 0.008760377764701843
Model: "model_7"
_________________________________________________________________
Layer (type)                 Output Shape              Param #   
=================================================================
input_10 (InputLayer)        [(None, 7, 7, 4, 1)]      0         
_________________________________________________________________
zero_padding3d_3 (ZeroPaddin (None, 8, 8, 4, 1)        0         
_________________________________________________________________
conv3d_18 (Conv3D)           (None, 8, 8, 4, 8)        224       
_________________________________________________________________
max_pooling3d_6 (MaxPooling3 (None, 4, 4, 2, 8)        0         
_________________________________________________________________
conv3d_19 (Conv3D)           (None, 4, 4, 2, 4)        868       
_________________________________________________________________
max_pooling3d_7 (MaxPooling3 (None, 2, 2, 1, 4)        0         
_________________________________________________________________
conv3d_20 (Conv3D)           (None, 2, 2, 1, 4)        436       
=================================================================
Total params: 1,528
Trainable params: 1,528
Non-trainable params: 0
_________________________________________________________________
Performance on test dataset (mean error): 0.11436574906110764
