*************************** Fold #: 1 ***************************
Model: "model"
_________________________________________________________________
Layer (type)                 Output Shape              Param #   
=================================================================
cat (InputLayer)             [(None, 43)]              0         
_________________________________________________________________
dense (Dense)                (None, 29)                1276      
_________________________________________________________________
dense_1 (Dense)              (None, 29)                870       
_________________________________________________________________
dense_2 (Dense)              (None, 29)                870       
_________________________________________________________________
dense_3 (Dense)              (None, 29)                870       
_________________________________________________________________
dense_4 (Dense)              (None, 29)                870       
_________________________________________________________________
dense_5 (Dense)              (None, 1)                 30        
=================================================================
Total params: 4,786
Trainable params: 4,786
Non-trainable params: 0
_________________________________________________________________
Epoch 1/10000
4/4 - 0s - loss: 39292.7344 - val_loss: 40144.6875

Epoch 00001: val_loss improved from inf to 40144.68750, saving model to ./results/NN_rms_regr/MYI/canny_CAE/ckpt_1
Epoch 2/10000
…
