*************************** Fold #: 1 ***************************
Model: "sequential"
_________________________________________________________________
Layer (type)                 Output Shape              Param #   
=================================================================
dense (Dense)                (None, 30)                1380      
_________________________________________________________________
dense_1 (Dense)              (None, 30)                930       
_________________________________________________________________
dense_2 (Dense)              (None, 30)                930       
_________________________________________________________________
dense_3 (Dense)              (None, 30)                930       
_________________________________________________________________
dense_4 (Dense)              (None, 30)                930       
_________________________________________________________________
dense_5 (Dense)              (None, 1)                 31        
=================================================================
Total params: 5,131
Trainable params: 5,131
Non-trainable params: 0
_________________________________________________________________
Epoch 1/10000
12/12 - 0s - loss: 8.3555 - val_loss: 8.2947

Epoch 00001: val_loss improved from inf to 8.29472, saving model to ./results/NN_thk_regr/window/FYI_MYI/SOBEL_CAE/ckpt_1
Epoch 2/10000
…
