Before oversampling: Counter({1.0: 5123, 2.0: 4766})
After oversampling: Counter({1.0: 5123, 2.0: 5123})
Classes: [1. 2.]
*************************** Fold #: 1 ***************************
Model: "model"
_________________________________________________________________
Layer (type)                 Output Shape              Param #   
=================================================================
input_1 (InputLayer)         [(None, 13)]              0         
_________________________________________________________________
dense (Dense)                (None, 10)                140       
_________________________________________________________________
dense_1 (Dense)              (None, 10)                110       
_________________________________________________________________
dense_2 (Dense)              (None, 10)                110       
_________________________________________________________________
dense_3 (Dense)              (None, 10)                110       
_________________________________________________________________
dense_4 (Dense)              (None, 10)                110       
_________________________________________________________________
dense_5 (Dense)              (None, 2)                 22        
=================================================================
Total params: 602
Trainable params: 602
Non-trainable params: 0
_________________________________________________________________
*************************** Fold #: 2 ***************************
Model: "model_1"
_________________________________________________________________
Layer (type)                 Output Shape              Param #   
=================================================================
input_2 (InputLayer)         [(None, 13)]              0         
_________________________________________________________________
dense_6 (Dense)              (None, 10)                140       
_________________________________________________________________
dense_7 (Dense)              (None, 10)                110       
_________________________________________________________________
dense_8 (Dense)              (None, 10)                110       
_________________________________________________________________
dense_9 (Dense)              (None, 10)                110       
_________________________________________________________________
dense_10 (Dense)             (None, 10)                110       
_________________________________________________________________
dense_11 (Dense)             (None, 2)                 22        
=================================================================
Total params: 602
Trainable params: 602
Non-trainable params: 0
_________________________________________________________________
*************************** Fold #: 3 ***************************
Model: "model_2"
_________________________________________________________________
Layer (type)                 Output Shape              Param #   
=================================================================
input_3 (InputLayer)         [(None, 13)]              0         
_________________________________________________________________
dense_12 (Dense)             (None, 10)                140       
_________________________________________________________________
dense_13 (Dense)             (None, 10)                110       
_________________________________________________________________
dense_14 (Dense)             (None, 10)                110       
_________________________________________________________________
dense_15 (Dense)             (None, 10)                110       
_________________________________________________________________
dense_16 (Dense)             (None, 10)                110       
_________________________________________________________________
dense_17 (Dense)             (None, 2)                 22        
=================================================================
Total params: 602
Trainable params: 602
Non-trainable params: 0
_________________________________________________________________
*************************** Fold #: 4 ***************************
Model: "model_3"
_________________________________________________________________
Layer (type)                 Output Shape              Param #   
=================================================================
input_4 (InputLayer)         [(None, 13)]              0         
_________________________________________________________________
dense_18 (Dense)             (None, 10)                140       
_________________________________________________________________
dense_19 (Dense)             (None, 10)                110       
_________________________________________________________________
dense_20 (Dense)             (None, 10)                110       
_________________________________________________________________
dense_21 (Dense)             (None, 10)                110       
_________________________________________________________________
dense_22 (Dense)             (None, 10)                110       
_________________________________________________________________
dense_23 (Dense)             (None, 2)                 22        
=================================================================
Total params: 602
Trainable params: 602
Non-trainable params: 0
_________________________________________________________________
*************************** Fold #: 5 ***************************
Model: "model_4"
_________________________________________________________________
Layer (type)                 Output Shape              Param #   
=================================================================
input_5 (InputLayer)         [(None, 13)]              0         
_________________________________________________________________
dense_24 (Dense)             (None, 10)                140       
_________________________________________________________________
dense_25 (Dense)             (None, 10)                110       
_________________________________________________________________
dense_26 (Dense)             (None, 10)                110       
_________________________________________________________________
dense_27 (Dense)             (None, 10)                110       
_________________________________________________________________
dense_28 (Dense)             (None, 10)                110       
_________________________________________________________________
dense_29 (Dense)             (None, 2)                 22        
=================================================================
Total params: 602
Trainable params: 602
Non-trainable params: 0
_________________________________________________________________
*************************** Fold #: 6 ***************************
Model: "model_5"
_________________________________________________________________
Layer (type)                 Output Shape              Param #   
=================================================================
input_6 (InputLayer)         [(None, 13)]              0         
_________________________________________________________________
dense_30 (Dense)             (None, 10)                140       
_________________________________________________________________
dense_31 (Dense)             (None, 10)                110       
_________________________________________________________________
dense_32 (Dense)             (None, 10)                110       
_________________________________________________________________
dense_33 (Dense)             (None, 10)                110       
_________________________________________________________________
dense_34 (Dense)             (None, 10)                110       
_________________________________________________________________
dense_35 (Dense)             (None, 2)                 22        
=================================================================
Total params: 602
Trainable params: 602
Non-trainable params: 0
_________________________________________________________________
*************************** Fold #: 7 ***************************
Model: "model_6"
_________________________________________________________________
Layer (type)                 Output Shape              Param #   
=================================================================
input_7 (InputLayer)         [(None, 13)]              0         
_________________________________________________________________
dense_36 (Dense)             (None, 10)                140       
_________________________________________________________________
dense_37 (Dense)             (None, 10)                110       
_________________________________________________________________
dense_38 (Dense)             (None, 10)                110       
_________________________________________________________________
dense_39 (Dense)             (None, 10)                110       
_________________________________________________________________
dense_40 (Dense)             (None, 10)                110       
_________________________________________________________________
dense_41 (Dense)             (None, 2)                 22        
=================================================================
Total params: 602
Trainable params: 602
Non-trainable params: 0
_________________________________________________________________
*************************** Fold #: 8 ***************************
Model: "model_7"
_________________________________________________________________
Layer (type)                 Output Shape              Param #   
=================================================================
input_8 (InputLayer)         [(None, 13)]              0         
_________________________________________________________________
dense_42 (Dense)             (None, 10)                140       
_________________________________________________________________
dense_43 (Dense)             (None, 10)                110       
_________________________________________________________________
dense_44 (Dense)             (None, 10)                110       
_________________________________________________________________
dense_45 (Dense)             (None, 10)                110       
_________________________________________________________________
dense_46 (Dense)             (None, 10)                110       
_________________________________________________________________
dense_47 (Dense)             (None, 2)                 22        
=================================================================
Total params: 602
Trainable params: 602
Non-trainable params: 0
_________________________________________________________________
*************************** Fold #: 9 ***************************
Model: "model_8"
_________________________________________________________________
Layer (type)                 Output Shape              Param #   
=================================================================
input_9 (InputLayer)         [(None, 13)]              0         
_________________________________________________________________
dense_48 (Dense)             (None, 10)                140       
_________________________________________________________________
dense_49 (Dense)             (None, 10)                110       
_________________________________________________________________
dense_50 (Dense)             (None, 10)                110       
_________________________________________________________________
dense_51 (Dense)             (None, 10)                110       
_________________________________________________________________
dense_52 (Dense)             (None, 10)                110       
_________________________________________________________________
dense_53 (Dense)             (None, 2)                 22        
=================================================================
Total params: 602
Trainable params: 602
Non-trainable params: 0
_________________________________________________________________
*************************** Fold #: 10 ***************************
Model: "model_9"
_________________________________________________________________
Layer (type)                 Output Shape              Param #   
=================================================================
input_10 (InputLayer)        [(None, 13)]              0         
_________________________________________________________________
dense_54 (Dense)             (None, 10)                140       
_________________________________________________________________
dense_55 (Dense)             (None, 10)                110       
_________________________________________________________________
dense_56 (Dense)             (None, 10)                110       
_________________________________________________________________
dense_57 (Dense)             (None, 10)                110       
_________________________________________________________________
dense_58 (Dense)             (None, 10)                110       
_________________________________________________________________
dense_59 (Dense)             (None, 2)                 22        
=================================================================
Total params: 602
Trainable params: 602
Non-trainable params: 0
_________________________________________________________________
