*************************** Fold #: 1 ***************************
Model: "model"
_________________________________________________________________
 Layer (type)                Output Shape              Param #   
=================================================================
 cat (InputLayer)            [(None, 47)]              0         
                                                                 
 dense (Dense)               (None, 32)                1536      
                                                                 
 dense_1 (Dense)             (None, 32)                1056      
                                                                 
 dense_2 (Dense)             (None, 32)                1056      
                                                                 
 dense_3 (Dense)             (None, 32)                1056      
                                                                 
 dense_4 (Dense)             (None, 32)                1056      
                                                                 
 dense_5 (Dense)             (None, 1)                 33        
                                                                 
=================================================================
Total params: 5,793
Trainable params: 5,793
Non-trainable params: 0
_________________________________________________________________
Epoch 1/10000

Epoch 1: val_loss improved from inf to 37791.70703, saving model to ./results/NN_rms_regr/FYI_MYI_likelihood/canny_CAE/ckpt_1
…
