*************************** Fold #: 1 ***************************
Model: "model"
_________________________________________________________________
Layer (type)                 Output Shape              Param #   
=================================================================
cat (InputLayer)             [(None, 45)]              0         
_________________________________________________________________
dense (Dense)                (None, 30)                1380      
_________________________________________________________________
dense_1 (Dense)              (None, 30)                930       
_________________________________________________________________
dense_2 (Dense)              (None, 30)                930       
_________________________________________________________________
dense_3 (Dense)              (None, 30)                930       
_________________________________________________________________
dense_4 (Dense)              (None, 30)                930       
_________________________________________________________________
dense_5 (Dense)              (None, 1)                 31        
=================================================================
Total params: 5,131
Trainable params: 5,131
Non-trainable params: 0
_________________________________________________________________
Epoch 1/10000
5/5 - 0s - loss: 7.1994 - val_loss: 7.3596

Epoch 00001: val_loss improved from inf to 7.35963, saving model to ./results/NN_thk_regr/FYI//canny_CAE/ckpt_1
Epoch 2/10000
5/5 - 0s - loss: 7.1512 - val_loss: 7.3039
…
