*************************** Fold #: 1 ***************************
Model: "model"
_________________________________________________________________
 Layer (type)                Output Shape              Param #   
=================================================================
 cat (InputLayer)            [(None, 45)]              0         
                                                                 
 dense (Dense)               (None, 30)                1380      
                                                                 
 dense_1 (Dense)             (None, 30)                930       
                                                                 
 dense_2 (Dense)             (None, 30)                930       
                                                                 
 dense_3 (Dense)             (None, 30)                930       
                                                                 
 dense_4 (Dense)             (None, 30)                930       
                                                                 
 dense_5 (Dense)             (None, 1)                 31        
                                                                 
=================================================================
Total params: 5,131
Trainable params: 5,131
Non-trainable params: 0
_________________________________________________________________
Epoch 1/10000

Epoch 1: val_loss improved from inf to 7.16689, saving model to ./results/NN_thk_regr/FYI//canny_CAE/ckpt_1
5/5 - 1s - loss: 7.2175 - val_loss: 7.1669 - 981ms/epoch - 196ms/step
…
