*************************** Fold #: 1 ***************************
Model: "model"
_________________________________________________________________
Layer (type)                 Output Shape              Param #   
=================================================================
cat (InputLayer)             [(None, 25)]              0         
_________________________________________________________________
dense (Dense)                (None, 17)                442       
_________________________________________________________________
dense_1 (Dense)              (None, 17)                306       
_________________________________________________________________
dense_2 (Dense)              (None, 17)                306       
_________________________________________________________________
dense_3 (Dense)              (None, 17)                306       
_________________________________________________________________
dense_4 (Dense)              (None, 17)                306       
_________________________________________________________________
dense_5 (Dense)              (None, 1)                 18        
=================================================================
Total params: 1,684
Trainable params: 1,684
Non-trainable params: 0
_________________________________________________________________
Epoch 1/10000
5/5 - 0s - loss: 7.2643 - val_loss: 6.8326

Epoch 00001: val_loss improved from inf to 6.83258, saving model to ./results/NN_thk_regr/FYI//GLCM/ckpt_1
Epoch 2/10000
5/5 - 0s - loss: 7.2314 - val_loss: 6.7989
…
