*************************** Fold #: 1 ***************************
Model: "model"
_________________________________________________________________
 Layer (type)                Output Shape              Param #   
=================================================================
 cat (InputLayer)            [(None, 15)]              0         
                                                                 
 dense (Dense)               (None, 10)                160       
                                                                 
 dense_1 (Dense)             (None, 10)                110       
                                                                 
 dense_2 (Dense)             (None, 10)                110       
                                                                 
 dense_3 (Dense)             (None, 10)                110       
                                                                 
 dense_4 (Dense)             (None, 10)                110       
                                                                 
 dense_5 (Dense)             (None, 1)                 11        
                                                                 
=================================================================
Total params: 611
Trainable params: 611
Non-trainable params: 0
_________________________________________________________________
Epoch 1/10000

Epoch 1: val_loss improved from inf to 9.00219, saving model to ./results/NN_thk_regr/FYI_MYI_likelihood//corr_std/ckpt_1
…
