*************************** Fold #: 1 ***************************
Model: "sequential"
_________________________________________________________________
Layer (type)                 Output Shape              Param #   
=================================================================
dense (Dense)                (None, 9)                 126       
_________________________________________________________________
dense_1 (Dense)              (None, 9)                 90        
_________________________________________________________________
dense_2 (Dense)              (None, 9)                 90        
_________________________________________________________________
dense_3 (Dense)              (None, 9)                 90        
_________________________________________________________________
dense_4 (Dense)              (None, 9)                 90        
_________________________________________________________________
dense_5 (Dense)              (None, 1)                 10        
=================================================================
Total params: 496
Trainable params: 496
Non-trainable params: 0
_________________________________________________________________
Epoch 1/10000
4/4 - 0s - loss: 34867.5312 - val_loss: 34123.5547

Epoch 00001: val_loss improved from inf to 34123.55469, saving model to ./results/NN_rms_regr/FYI/aggr/ckpt_1
Epoch 2/10000
4/4 - 0s - loss: 34866.1094 - val_loss: 34122.1172
…
