*************************** Fold #: 1 ***************************
Model: "sequential"
_________________________________________________________________
Layer (type)                 Output Shape              Param #   
=================================================================
dense (Dense)                (None, 30)                420       
_________________________________________________________________
dense_1 (Dense)              (None, 30)                930       
_________________________________________________________________
dense_2 (Dense)              (None, 30)                930       
_________________________________________________________________
dense_3 (Dense)              (None, 30)                930       
_________________________________________________________________
dense_4 (Dense)              (None, 30)                930       
_________________________________________________________________
dense_5 (Dense)              (None, 1)                 31        
=================================================================
Total params: 4,171
Trainable params: 4,171
Non-trainable params: 0
_________________________________________________________________
Epoch 1/10000
4/4 - 0s - loss: 35008.3281 - val_loss: 32852.8477

Epoch 00001: val_loss improved from inf to 32852.84766, saving model to ./results/NN_rms_regr/FYI/aggr/ckpt_1
Epoch 2/10000
4/4 - 0s - loss: 35005.8203 - val_loss: 32850.1875
…
