*************************** Fold #: 1 ***************************
Model: "sequential"
_________________________________________________________________
Layer (type)                 Output Shape              Param #   
=================================================================
dense (Dense)                (None, 30)                1380      
_________________________________________________________________
dense_1 (Dense)              (None, 30)                930       
_________________________________________________________________
dense_2 (Dense)              (None, 30)                930       
_________________________________________________________________
dense_3 (Dense)              (None, 30)                930       
_________________________________________________________________
dense_4 (Dense)              (None, 30)                930       
_________________________________________________________________
dense_5 (Dense)              (None, 1)                 31        
=================================================================
Total params: 5,131
Trainable params: 5,131
Non-trainable params: 0
_________________________________________________________________
Epoch 1/10000
5/5 - 0s - loss: 10.7107 - val_loss: 10.3744

Epoch 00001: val_loss improved from inf to 10.37438, saving model to ./results/NN_thk_regr/MYI/SOBEL_CAE/ckpt_1
Epoch 2/10000
5/5 - 0s - loss: 10.6656 - val_loss: 10.3232
…
