*************************** Fold #: 1 ***************************
Model: "model"
_________________________________________________________________
Layer (type)                 Output Shape              Param #   
=================================================================
cat (InputLayer)             [(None, 38)]              0         
_________________________________________________________________
dense (Dense)                (None, 26)                1014      
_________________________________________________________________
dense_1 (Dense)              (None, 26)                702       
_________________________________________________________________
dense_2 (Dense)              (None, 26)                702       
_________________________________________________________________
dense_3 (Dense)              (None, 26)                702       
_________________________________________________________________
dense_4 (Dense)              (None, 26)                702       
_________________________________________________________________
dense_5 (Dense)              (None, 1)                 27        
=================================================================
Total params: 3,849
Trainable params: 3,849
Non-trainable params: 0
_________________________________________________________________
Epoch 1/10000
5/5 - 0s - loss: 7.1830 - val_loss: 7.5548

Epoch 00001: val_loss improved from inf to 7.55477, saving model to ./results/NN_thk_regr/FYI//SOBEL_CAE/ckpt_1
Epoch 2/10000
5/5 - 0s - loss: 7.1470 - val_loss: 7.5138
…
