…
, 449: 2, 459: 2, 462: 2, 465: 2, 467: 2, 469: 2, 479: 2, 480: 2, 423: 1, 443: 1, 457: 1, 461: 1, 470: 1, 475: 1, 489: 1, 490: 1})
Size of dataset: (11128, 10)
*************************** Fold #: 1 ***************************
Model: "model"
_________________________________________________________________
 Layer (type)                Output Shape              Param #   
=================================================================
 cat (InputLayer)            [(None, 9)]               0         
                                                                 
 dense (Dense)               (None, 15)                150       
                                                                 
 dense_1 (Dense)             (None, 15)                240       
                                                                 
 dense_2 (Dense)             (None, 15)                240       
                                                                 
 dense_3 (Dense)             (None, 15)                240       
                                                                 
 dense_4 (Dense)             (None, 15)                240       
                                                                 
 dense_5 (Dense)             (None, 1)                 16        
                                                                 
=================================================================
Total params: 1,126
Trainable params: 1,126
Non-trainable params: 0
_________________________________________________________________
Epoch 1/10000

Epoch 1: val_loss improved from inf to 30578.15625, saving model to ./results/NN_rms_regr/FYI_MYI_likelihood/backscatter/ckpt_1
…
