…
 2, 411: 2, 420: 2, 436: 2, 449: 2, 453: 2, 457: 2, 484: 2, 3: 1, 414: 1, 425: 1, 443: 1, 459: 1, 461: 1, 467: 1, 475: 1, 490: 1})
Size of dataset: (11006, 26)
*************************** Fold #: 1 ***************************
Model: "model"
_________________________________________________________________
 Layer (type)                Output Shape              Param #   
=================================================================
 cat (InputLayer)            [(None, 25)]              0         
                                                                 
 dense (Dense)               (None, 50)                1300      
                                                                 
 dense_1 (Dense)             (None, 50)                2550      
                                                                 
 dense_2 (Dense)             (None, 50)                2550      
                                                                 
 dense_3 (Dense)             (None, 50)                2550      
                                                                 
 dense_4 (Dense)             (None, 50)                2550      
                                                                 
 dense_5 (Dense)             (None, 1)                 51        
                                                                 
=================================================================
Total params: 11,551
Trainable params: 11,551
Non-trainable params: 0
_________________________________________________________________
Epoch 1/10000

Epoch 1: val_loss improved from inf to 31070.39453, saving model to ./results/NN_rms_regr/FYI_MYI_likelihood/CAE/ckpt_1
…
