Model: "sequential"
_________________________________________________________________
Layer (type)                 Output Shape              Param #   
=================================================================
zero_padding3d (ZeroPadding3 (None, 8, 8, 4, 1)        0         
_________________________________________________________________
conv3d (Conv3D)              (None, 8, 8, 4, 8)        224       
_________________________________________________________________
max_pooling3d (MaxPooling3D) (None, 4, 4, 2, 8)        0         
_________________________________________________________________
conv3d_1 (Conv3D)            (None, 4, 4, 2, 4)        868       
_________________________________________________________________
max_pooling3d_1 (MaxPooling3 (None, 2, 2, 1, 4)        0         
_________________________________________________________________
conv3d_2 (Conv3D)            (None, 2, 2, 1, 4)        436       
_________________________________________________________________
up_sampling3d (UpSampling3D) (None, 4, 4, 2, 4)        0         
_________________________________________________________________
conv3d_3 (Conv3D)            (None, 4, 4, 2, 4)        436       
_________________________________________________________________
up_sampling3d_1 (UpSampling3 (None, 8, 8, 4, 4)        0         
_________________________________________________________________
conv3d_4 (Conv3D)            (None, 8, 8, 4, 8)        872       
_________________________________________________________________
conv3d_5 (Conv3D)            (None, 8, 8, 4, 1)        217       
_________________________________________________________________
cropping3d (Cropping3D)      (None, 7, 7, 4, 1)        0         
=================================================================
Total params: 3,053
Trainable params: 3,053
Non-trainable params: 0
_________________________________________________________________
Epoch 1/1000
13/13 - 4s - loss: 0.0341 - val_loss: 0.1486

Epoch 00001: val_loss improved from inf to 0.14856, saving model to ./CAE_models/rms/ckpt
Epoch 2/1000
13/13 - 3s - loss: 0.0315 - val_loss: 0.1653
…
13/13 - 3s - loss: 5.6552e-04 - val_loss: 0.0600

Epoch 00130: val_loss did not improve from 0.05569
Epoch 131/1000
13/13 - 3s - loss: 5.6909e-04 - val_loss: 0.0604

Epoch 00131: val_loss did not improve from 0.05569
Epoch 00131: early stopping
Model: "model"
_________________________________________________________________
Layer (type)                 Output Shape              Param #   
=================================================================
input_1 (InputLayer)         [(None, 7, 7, 4, 1)]      0         
_________________________________________________________________
zero_padding3d (ZeroPadding3 (None, 8, 8, 4, 1)        0         
_________________________________________________________________
conv3d (Conv3D)              (None, 8, 8, 4, 8)        224       
_________________________________________________________________
max_pooling3d (MaxPooling3D) (None, 4, 4, 2, 8)        0         
_________________________________________________________________
conv3d_1 (Conv3D)            (None, 4, 4, 2, 4)        868       
_________________________________________________________________
max_pooling3d_1 (MaxPooling3 (None, 2, 2, 1, 4)        0         
_________________________________________________________________
conv3d_2 (Conv3D)            (None, 2, 2, 1, 4)        436       
=================================================================
Total params: 1,528
Trainable params: 1,528
Non-trainable params: 0
_________________________________________________________________
Performance on train dataset (mean error): 0.007219887804239988
Model: "model_1"
_________________________________________________________________
Layer (type)                 Output Shape              Param #   
=================================================================
input_1 (InputLayer)         [(None, 7, 7, 4, 1)]      0         
_________________________________________________________________
zero_padding3d (ZeroPadding3 (None, 8, 8, 4, 1)        0         
_________________________________________________________________
conv3d (Conv3D)              (None, 8, 8, 4, 8)        224       
_________________________________________________________________
max_pooling3d (MaxPooling3D) (None, 4, 4, 2, 8)        0         
_________________________________________________________________
conv3d_1 (Conv3D)            (None, 4, 4, 2, 4)        868       
_________________________________________________________________
max_pooling3d_1 (MaxPooling3 (None, 2, 2, 1, 4)        0         
_________________________________________________________________
conv3d_2 (Conv3D)            (None, 2, 2, 1, 4)        436       
=================================================================
Total params: 1,528
Trainable params: 1,528
Non-trainable params: 0
_________________________________________________________________
Performance on test dataset (mean error): 0.08936821669340134
