Model: "sequential"
_________________________________________________________________
Layer (type)                 Output Shape              Param #   
=================================================================
zero_padding3d (ZeroPadding3 (None, 8, 8, 4, 1)        0         
_________________________________________________________________
conv3d (Conv3D)              (None, 8, 8, 4, 8)        224       
_________________________________________________________________
max_pooling3d (MaxPooling3D) (None, 4, 4, 2, 8)        0         
_________________________________________________________________
conv3d_1 (Conv3D)            (None, 4, 4, 2, 4)        868       
_________________________________________________________________
max_pooling3d_1 (MaxPooling3 (None, 2, 2, 1, 4)        0         
_________________________________________________________________
conv3d_2 (Conv3D)            (None, 2, 2, 1, 4)        436       
_________________________________________________________________
up_sampling3d (UpSampling3D) (None, 4, 4, 2, 4)        0         
_________________________________________________________________
conv3d_3 (Conv3D)            (None, 4, 4, 2, 4)        436       
_________________________________________________________________
up_sampling3d_1 (UpSampling3 (None, 8, 8, 4, 4)        0         
_________________________________________________________________
conv3d_4 (Conv3D)            (None, 8, 8, 4, 8)        872       
_________________________________________________________________
conv3d_5 (Conv3D)            (None, 8, 8, 4, 1)        217       
_________________________________________________________________
cropping3d (Cropping3D)      (None, 7, 7, 4, 1)        0         
=================================================================
Total params: 3,053
Trainable params: 3,053
Non-trainable params: 0
_________________________________________________________________
Epoch 1/10000
13/13 - 4s - loss: 0.0339 - val_loss: 0.1580

Epoch 00001: val_loss improved from inf to 0.15798, saving model to ./CAE_models/rms/ckpt
Epoch 2/10000
13/13 - 3s - loss: 0.0304 - val_loss: 0.1848
…
13/13 - 3s - loss: 6.6670e-04 - val_loss: 0.0362

Epoch 00111: val_loss did not improve from 0.03415
Epoch 112/10000
13/13 - 3s - loss: 6.4548e-04 - val_loss: 0.0364

Epoch 00112: val_loss did not improve from 0.03415
Epoch 00112: early stopping
Model: "model"
_________________________________________________________________
Layer (type)                 Output Shape              Param #   
=================================================================
input_1 (InputLayer)         [(None, 7, 7, 4, 1)]      0         
_________________________________________________________________
zero_padding3d (ZeroPadding3 (None, 8, 8, 4, 1)        0         
_________________________________________________________________
conv3d (Conv3D)              (None, 8, 8, 4, 8)        224       
_________________________________________________________________
max_pooling3d (MaxPooling3D) (None, 4, 4, 2, 8)        0         
_________________________________________________________________
conv3d_1 (Conv3D)            (None, 4, 4, 2, 4)        868       
_________________________________________________________________
max_pooling3d_1 (MaxPooling3 (None, 2, 2, 1, 4)        0         
_________________________________________________________________
conv3d_2 (Conv3D)            (None, 2, 2, 1, 4)        436       
=================================================================
Total params: 1,528
Trainable params: 1,528
Non-trainable params: 0
_________________________________________________________________
Performance on train dataset (mean error): 0.008032182231545448
Model: "model_1"
_________________________________________________________________
Layer (type)                 Output Shape              Param #   
=================================================================
input_1 (InputLayer)         [(None, 7, 7, 4, 1)]      0         
_________________________________________________________________
zero_padding3d (ZeroPadding3 (None, 8, 8, 4, 1)        0         
_________________________________________________________________
conv3d (Conv3D)              (None, 8, 8, 4, 8)        224       
_________________________________________________________________
max_pooling3d (MaxPooling3D) (None, 4, 4, 2, 8)        0         
_________________________________________________________________
conv3d_1 (Conv3D)            (None, 4, 4, 2, 4)        868       
_________________________________________________________________
max_pooling3d_1 (MaxPooling3 (None, 2, 2, 1, 4)        0         
_________________________________________________________________
conv3d_2 (Conv3D)            (None, 2, 2, 1, 4)        436       
=================================================================
Total params: 1,528
Trainable params: 1,528
Non-trainable params: 0
_________________________________________________________________
Performance on test dataset (mean error): 0.10804696381092072
