Model: "sequential"
_________________________________________________________________
Layer (type)                 Output Shape              Param #   
=================================================================
zero_padding3d (ZeroPadding3 (None, 8, 8, 4, 1)        0         
_________________________________________________________________
conv3d (Conv3D)              (None, 8, 8, 4, 8)        224       
_________________________________________________________________
max_pooling3d (MaxPooling3D) (None, 4, 4, 2, 8)        0         
_________________________________________________________________
conv3d_1 (Conv3D)            (None, 4, 4, 2, 4)        868       
_________________________________________________________________
max_pooling3d_1 (MaxPooling3 (None, 2, 2, 1, 4)        0         
_________________________________________________________________
conv3d_2 (Conv3D)            (None, 2, 2, 1, 4)        436       
_________________________________________________________________
conv3d_3 (Conv3D)            (None, 2, 2, 1, 4)        436       
_________________________________________________________________
up_sampling3d (UpSampling3D) (None, 4, 4, 2, 4)        0         
_________________________________________________________________
conv3d_4 (Conv3D)            (None, 4, 4, 2, 4)        436       
_________________________________________________________________
up_sampling3d_1 (UpSampling3 (None, 8, 8, 4, 4)        0         
_________________________________________________________________
conv3d_5 (Conv3D)            (None, 8, 8, 4, 8)        872       
_________________________________________________________________
conv3d_6 (Conv3D)            (None, 8, 8, 4, 1)        145       
_________________________________________________________________
cropping3d (Cropping3D)      (None, 7, 7, 2, 1)        0         
=================================================================
Total params: 3,417
Trainable params: 3,417
Non-trainable params: 0
_________________________________________________________________
Epoch 1/1000
13/13 - 3s - loss: 0.0132 - val_loss: 0.0192

Epoch 00001: val_loss improved from inf to 0.01922, saving model to ./CAE_models/rms/ckpt
Epoch 2/1000
13/13 - 3s - loss: 0.0124 - val_loss: 0.0182
…
13/13 - 3s - loss: 5.4339e-04 - val_loss: 8.6127e-04

Epoch 00999: val_loss did not improve from 0.00086
Epoch 1000/1000
13/13 - 3s - loss: 5.5627e-04 - val_loss: 8.7681e-04

Epoch 01000: val_loss did not improve from 0.00086
Model: "model"
_________________________________________________________________
Layer (type)                 Output Shape              Param #   
=================================================================
input_1 (InputLayer)         [(None, 7, 7, 2, 1)]      0         
_________________________________________________________________
zero_padding3d (ZeroPadding3 (None, 8, 8, 4, 1)        0         
_________________________________________________________________
conv3d (Conv3D)              (None, 8, 8, 4, 8)        224       
_________________________________________________________________
max_pooling3d (MaxPooling3D) (None, 4, 4, 2, 8)        0         
_________________________________________________________________
conv3d_1 (Conv3D)            (None, 4, 4, 2, 4)        868       
_________________________________________________________________
max_pooling3d_1 (MaxPooling3 (None, 2, 2, 1, 4)        0         
_________________________________________________________________
conv3d_2 (Conv3D)            (None, 2, 2, 1, 4)        436       
=================================================================
Total params: 1,528
Trainable params: 1,528
Non-trainable params: 0
_________________________________________________________________
Performance on train dataset (mean error): 0.0011262649204581976
Model: "model_1"
_________________________________________________________________
Layer (type)                 Output Shape              Param #   
=================================================================
input_1 (InputLayer)         [(None, 7, 7, 2, 1)]      0         
_________________________________________________________________
zero_padding3d (ZeroPadding3 (None, 8, 8, 4, 1)        0         
_________________________________________________________________
conv3d (Conv3D)              (None, 8, 8, 4, 8)        224       
_________________________________________________________________
max_pooling3d (MaxPooling3D) (None, 4, 4, 2, 8)        0         
_________________________________________________________________
conv3d_1 (Conv3D)            (None, 4, 4, 2, 4)        868       
_________________________________________________________________
max_pooling3d_1 (MaxPooling3 (None, 2, 2, 1, 4)        0         
_________________________________________________________________
conv3d_2 (Conv3D)            (None, 2, 2, 1, 4)        436       
=================================================================
Total params: 1,528
Trainable params: 1,528
Non-trainable params: 0
_________________________________________________________________
Performance on test dataset (mean error): 0.001691087381914258
