*************************** Fold #: 1 ***************************
Model: "model"
_________________________________________________________________
Layer (type)                 Output Shape              Param #   
=================================================================
cat (InputLayer)             [(None, 3)]               0         
_________________________________________________________________
dense (Dense)                (None, 6)                 24        
_________________________________________________________________
dense_1 (Dense)              (None, 6)                 42        
_________________________________________________________________
dense_2 (Dense)              (None, 6)                 42        
_________________________________________________________________
dense_3 (Dense)              (None, 6)                 42        
_________________________________________________________________
dense_4 (Dense)              (None, 6)                 42        
_________________________________________________________________
dense_5 (Dense)              (None, 1)                 7         
=================================================================
Total params: 199
Trainable params: 199
Non-trainable params: 0
_________________________________________________________________
Epoch 1/10000
4/4 - 0s - loss: 0.1910 - val_loss: 0.1918

Epoch 00001: val_loss improved from inf to 0.19178, saving model to ./results/NN_rms_regr/FYI/original/ckpt_1
Epoch 2/10000
4/4 - 0s - loss: 0.1873 - val_loss: 0.1881
…
