Model: "sequential_6"
_________________________________________________________________
Layer (type)                 Output Shape              Param #   
=================================================================
zero_padding3d_2 (ZeroPaddin (None, 8, 8, 4, 1)        0         
_________________________________________________________________
conv3d_14 (Conv3D)           (None, 8, 8, 4, 8)        224       
_________________________________________________________________
max_pooling3d_4 (MaxPooling3 (None, 4, 4, 2, 8)        0         
_________________________________________________________________
conv3d_15 (Conv3D)           (None, 4, 4, 2, 4)        868       
_________________________________________________________________
max_pooling3d_5 (MaxPooling3 (None, 2, 2, 1, 4)        0         
_________________________________________________________________
conv3d_16 (Conv3D)           (None, 2, 2, 1, 4)        436       
_________________________________________________________________
conv3d_17 (Conv3D)           (None, 2, 2, 1, 4)        436       
_________________________________________________________________
up_sampling3d_4 (UpSampling3 (None, 4, 4, 2, 4)        0         
_________________________________________________________________
conv3d_18 (Conv3D)           (None, 4, 4, 2, 4)        436       
_________________________________________________________________
up_sampling3d_5 (UpSampling3 (None, 8, 8, 4, 4)        0         
_________________________________________________________________
conv3d_19 (Conv3D)           (None, 8, 8, 4, 8)        872       
_________________________________________________________________
conv3d_20 (Conv3D)           (None, 8, 8, 4, 1)        145       
_________________________________________________________________
cropping3d_2 (Cropping3D)    (None, 7, 7, 4, 1)        0         
=================================================================
Total params: 3,417
Trainable params: 3,417
Non-trainable params: 0
_________________________________________________________________
Epoch 1/1000
13/13 - 3s - loss: 0.0343 - val_loss: 0.1411

Epoch 00001: val_loss improved from inf to 0.14111, saving model to ./CAE_models/rms_theta/ckpt
Epoch 2/1000
13/13 - 3s - loss: 0.0312 - val_loss: 0.2065
…
13/13 - 3s - loss: 4.8967e-04 - val_loss: 0.0369

Epoch 00383: val_loss did not improve from 0.03635
Epoch 384/1000
13/13 - 3s - loss: 4.7543e-04 - val_loss: 0.0367

Epoch 00384: val_loss did not improve from 0.03635
Epoch 00384: early stopping
Model: "model_4"
_________________________________________________________________
Layer (type)                 Output Shape              Param #   
=================================================================
input_7 (InputLayer)         [(None, 7, 7, 4, 1)]      0         
_________________________________________________________________
zero_padding3d_2 (ZeroPaddin (None, 8, 8, 4, 1)        0         
_________________________________________________________________
conv3d_14 (Conv3D)           (None, 8, 8, 4, 8)        224       
_________________________________________________________________
max_pooling3d_4 (MaxPooling3 (None, 4, 4, 2, 8)        0         
_________________________________________________________________
conv3d_15 (Conv3D)           (None, 4, 4, 2, 4)        868       
_________________________________________________________________
max_pooling3d_5 (MaxPooling3 (None, 2, 2, 1, 4)        0         
_________________________________________________________________
conv3d_16 (Conv3D)           (None, 2, 2, 1, 4)        436       
=================================================================
Total params: 1,528
Trainable params: 1,528
Non-trainable params: 0
_________________________________________________________________
Performance on train dataset (mean error): 0.0017697811126708984
Model: "model_5"
_________________________________________________________________
Layer (type)                 Output Shape              Param #   
=================================================================
input_7 (InputLayer)         [(None, 7, 7, 4, 1)]      0         
_________________________________________________________________
zero_padding3d_2 (ZeroPaddin (None, 8, 8, 4, 1)        0         
_________________________________________________________________
conv3d_14 (Conv3D)           (None, 8, 8, 4, 8)        224       
_________________________________________________________________
max_pooling3d_4 (MaxPooling3 (None, 4, 4, 2, 8)        0         
_________________________________________________________________
conv3d_15 (Conv3D)           (None, 4, 4, 2, 4)        868       
_________________________________________________________________
max_pooling3d_5 (MaxPooling3 (None, 2, 2, 1, 4)        0         
_________________________________________________________________
conv3d_16 (Conv3D)           (None, 2, 2, 1, 4)        436       
=================================================================
Total params: 1,528
Trainable params: 1,528
Non-trainable params: 0
_________________________________________________________________
Performance on test dataset (mean error): 0.1157328337430954
