Model: "sequential_3"
_________________________________________________________________
Layer (type)                 Output Shape              Param #   
=================================================================
zero_padding3d_1 (ZeroPaddin (None, 8, 8, 8, 1)        0         
_________________________________________________________________
conv3d_6 (Conv3D)            (None, 8, 8, 8, 8)        224       
_________________________________________________________________
max_pooling3d_2 (MaxPooling3 (None, 4, 4, 4, 8)        0         
_________________________________________________________________
conv3d_7 (Conv3D)            (None, 4, 4, 4, 4)        868       
_________________________________________________________________
max_pooling3d_3 (MaxPooling3 (None, 2, 2, 2, 4)        0         
_________________________________________________________________
conv3d_8 (Conv3D)            (None, 2, 2, 2, 4)        436       
_________________________________________________________________
up_sampling3d_2 (UpSampling3 (None, 4, 4, 4, 4)        0         
_________________________________________________________________
conv3d_9 (Conv3D)            (None, 4, 4, 4, 4)        436       
_________________________________________________________________
up_sampling3d_3 (UpSampling3 (None, 8, 8, 8, 4)        0         
_________________________________________________________________
conv3d_10 (Conv3D)           (None, 8, 8, 8, 8)        872       
_________________________________________________________________
conv3d_11 (Conv3D)           (None, 8, 8, 8, 1)        217       
_________________________________________________________________
cropping3d_1 (Cropping3D)    (None, 7, 7, 6, 1)        0         
=================================================================
Total params: 3,053
Trainable params: 3,053
Non-trainable params: 0
_________________________________________________________________
Epoch 1/10000
13/13 - 6s - loss: 0.0231 - val_loss: 0.1192

Epoch 00001: val_loss improved from inf to 0.11917, saving model to ./CAE_models/rms_SOBEL/ckpt
Epoch 2/10000
13/13 - 6s - loss: 0.0218 - val_loss: 0.1109
…
13/13 - 6s - loss: 7.5884e-04 - val_loss: 0.0158

Epoch 00186: val_loss did not improve from 0.01445
Epoch 187/10000
13/13 - 6s - loss: 7.5823e-04 - val_loss: 0.0159

Epoch 00187: val_loss did not improve from 0.01445
Epoch 00187: early stopping
Model: "model_2"
_________________________________________________________________
Layer (type)                 Output Shape              Param #   
=================================================================
input_4 (InputLayer)         [(None, 7, 7, 6, 1)]      0         
_________________________________________________________________
zero_padding3d_1 (ZeroPaddin (None, 8, 8, 8, 1)        0         
_________________________________________________________________
conv3d_6 (Conv3D)            (None, 8, 8, 8, 8)        224       
_________________________________________________________________
max_pooling3d_2 (MaxPooling3 (None, 4, 4, 4, 8)        0         
_________________________________________________________________
conv3d_7 (Conv3D)            (None, 4, 4, 4, 4)        868       
_________________________________________________________________
max_pooling3d_3 (MaxPooling3 (None, 2, 2, 2, 4)        0         
_________________________________________________________________
conv3d_8 (Conv3D)            (None, 2, 2, 2, 4)        436       
=================================================================
Total params: 1,528
Trainable params: 1,528
Non-trainable params: 0
_________________________________________________________________
Performance on train dataset (mean error): 0.0013744313037022948
Model: "model_3"
_________________________________________________________________
Layer (type)                 Output Shape              Param #   
=================================================================
input_4 (InputLayer)         [(None, 7, 7, 6, 1)]      0         
_________________________________________________________________
zero_padding3d_1 (ZeroPaddin (None, 8, 8, 8, 1)        0         
_________________________________________________________________
conv3d_6 (Conv3D)            (None, 8, 8, 8, 8)        224       
_________________________________________________________________
max_pooling3d_2 (MaxPooling3 (None, 4, 4, 4, 8)        0         
_________________________________________________________________
conv3d_7 (Conv3D)            (None, 4, 4, 4, 4)        868       
_________________________________________________________________
max_pooling3d_3 (MaxPooling3 (None, 2, 2, 2, 4)        0         
_________________________________________________________________
conv3d_8 (Conv3D)            (None, 2, 2, 2, 4)        436       
=================================================================
Total params: 1,528
Trainable params: 1,528
Non-trainable params: 0
_________________________________________________________________
Performance on test dataset (mean error): 0.06769116967916489
