*************************** Fold #: 1 ***************************
Model: "model"
_________________________________________________________________
 Layer (type)                Output Shape              Param #   
=================================================================
 cat (InputLayer)            [(None, 19)]              0         
                                                                 
 dense (Dense)               (None, 13)                260       
                                                                 
 dense_1 (Dense)             (None, 13)                182       
                                                                 
 dense_2 (Dense)             (None, 13)                182       
                                                                 
 dense_3 (Dense)             (None, 13)                182       
                                                                 
 dense_4 (Dense)             (None, 13)                182       
                                                                 
 dense_5 (Dense)             (None, 1)                 14        
                                                                 
=================================================================
Total params: 1,002
Trainable params: 1,002
Non-trainable params: 0
_________________________________________________________________
Epoch 1/10000

Epoch 1: val_loss improved from inf to 42849.64844, saving model to ./results/NN_rms_regr/FYI_MYI/CAE/ckpt_1
34/34 - 1s - loss: 43005.0703 - val_loss: 42849.6484 - 1s/epoch - 35ms/step
…
