*************************** Fold #: 1 ***************************
Model: "model"
_________________________________________________________________
 Layer (type)                Output Shape              Param #   
=================================================================
 cat (InputLayer)            [(None, 13)]              0         
                                                                 
 dense (Dense)               (None, 9)                 126       
                                                                 
 dense_1 (Dense)             (None, 9)                 90        
                                                                 
 dense_2 (Dense)             (None, 9)                 90        
                                                                 
 dense_3 (Dense)             (None, 9)                 90        
                                                                 
 dense_4 (Dense)             (None, 9)                 90        
                                                                 
 dense_5 (Dense)             (None, 1)                 10        
                                                                 
=================================================================
Total params: 496
Trainable params: 496
Non-trainable params: 0
_________________________________________________________________
Epoch 1/10000

Epoch 1: val_loss improved from inf to 11.19115, saving model to ./results/NN_thk_regr/MYI//corr_std/ckpt_1
5/5 - 1s - loss: 10.6228 - val_loss: 11.1911 - 977ms/epoch - 195ms/step
…
