*************************** Fold #: 1 ***************************
Model: "model"
__________________________________________________________________________________________________
 Layer (type)                   Output Shape         Param #     Connected to                     
==================================================================================================
 conv (InputLayer)              [(None, 7, 7, 4, 1)  0           []                               
                                ]                                                                 
                                                                                                  
 zero_padding3d (ZeroPadding3D)  (None, 8, 8, 4, 1)  0           ['conv[0][0]']                   
                                                                                                  
 conv3d (Conv3D)                (None, 8, 8, 4, 8)   224         ['zero_padding3d[0][0]']         
                                                                                                  
 max_pooling3d (MaxPooling3D)   (None, 4, 4, 2, 8)   0           ['conv3d[0][0]']                 
                                                                                                  
 conv3d_1 (Conv3D)              (None, 4, 4, 2, 4)   868         ['max_pooling3d[0][0]']          
                                                                                                  
 max_pooling3d_1 (MaxPooling3D)  (None, 2, 2, 1, 4)  0           ['conv3d_1[0][0]']               
                                                                                                  
 cat (InputLayer)               [(None, 6)]          0           []                               
                                                                                                  
 flatten (Flatten)              (None, 16)           0           ['max_pooling3d_1[0][0]']        
                                                                                                  
 concatenate (Concatenate)      (None, 22)           0           ['cat[0][0]',                    
                                                                  'flatten[0][0]']                
                                                                                                  
 dense (Dense)                  (None, 10)           230         ['concatenate[0][0]']            
                                                                                                  
 dense_1 (Dense)                (None, 10)           110         ['dense[0][0]']                  
                                                                                                  
 dense_2 (Dense)                (None, 10)           110         ['dense_1[0][0]']                
                                                                                                  
 dense_3 (Dense)                (None, 10)           110         ['dense_2[0][0]']                
                                                                                                  
 dense_4 (Dense)                (None, 10)           110         ['dense_3[0][0]']                
                                                                                                  
 dense_5 (Dense)                (None, 1)            11          ['dense_4[0][0]']                
                                                                                                  
==================================================================================================
Total params: 1,773
Trainable params: 1,773
Non-trainable params: 0
__________________________________________________________________________________________________
…
