…
******************* Fold #: 1 ***************************
Model: "model"
__________________________________________________________________________________________________
Layer (type)                    Output Shape         Param #     Connected to                     
==================================================================================================
conv (InputLayer)               [(None, 7, 7, 2, 1)] 0                                            
__________________________________________________________________________________________________
zero_padding3d (ZeroPadding3D)  (None, 8, 8, 4, 1)   0           conv[0][0]                       
__________________________________________________________________________________________________
conv3d (Conv3D)                 (None, 8, 8, 4, 8)   224         zero_padding3d[0][0]             
__________________________________________________________________________________________________
max_pooling3d (MaxPooling3D)    (None, 4, 4, 2, 8)   0           conv3d[0][0]                     
__________________________________________________________________________________________________
conv3d_1 (Conv3D)               (None, 4, 4, 2, 4)   868         max_pooling3d[0][0]              
__________________________________________________________________________________________________
max_pooling3d_1 (MaxPooling3D)  (None, 2, 2, 1, 4)   0           conv3d_1[0][0]                   
__________________________________________________________________________________________________
conv3d_2 (Conv3D)               (None, 2, 2, 1, 4)   436         max_pooling3d_1[0][0]            
__________________________________________________________________________________________________
cat (InputLayer)                [(None, 13)]         0                                            
__________________________________________________________________________________________________
flatten (Flatten)               (None, 16)           0           conv3d_2[0][0]                   
__________________________________________________________________________________________________
concatenate (Concatenate)       (None, 29)           0           cat[0][0]                        
                                                                 flatten[0][0]                    
__________________________________________________________________________________________________
dense (Dense)                   (None, 20)           600         concatenate[0][0]                
__________________________________________________________________________________________________
dense_1 (Dense)                 (None, 20)           420         dense[0][0]                      
__________________________________________________________________________________________________
dense_2 (Dense)                 (None, 20)           420         dense_1[0][0]                    
__________________________________________________________________________________________________
dense_3 (Dense)                 (None, 20)           420         dense_2[0][0]                    
__________________________________________________________________________________________________
dense_4 (Dense)                 (None, 20)           420         dense_3[0][0]                    
__________________________________________________________________________________________________
dense_5 (Dense)                 (None, 1)            21          dense_4[0][0]                    
==================================================================================================
Total params: 3,829
Trainable params: 3,829
Non-trainable params: 0
__________________________________________________________________________________________________
Epoch 1/1000
8/8 - 1s - loss: 37206.0117 - val_loss: 38283.1445

Epoch 00001: val_loss improved from inf to 38283.14453, saving model to ./results/NN_rms_regr/init/FYI_MYI/CNN/ckpt_1
…
