*************************** Fold #: 1 ***************************
Model: "model"
_________________________________________________________________
Layer (type)                 Output Shape              Param #   
=================================================================
cat (InputLayer)             [(None, 37)]              0         
_________________________________________________________________
dense (Dense)                (None, 25)                950       
_________________________________________________________________
dense_1 (Dense)              (None, 25)                650       
_________________________________________________________________
dense_2 (Dense)              (None, 25)                650       
_________________________________________________________________
dense_3 (Dense)              (None, 25)                650       
_________________________________________________________________
dense_4 (Dense)              (None, 25)                650       
_________________________________________________________________
dense_5 (Dense)              (None, 1)                 26        
=================================================================
Total params: 3,576
Trainable params: 3,576
Non-trainable params: 0
_________________________________________________________________
Epoch 1/10000
8/8 - 0s - loss: 37316.6641 - val_loss: 37284.9102

Epoch 00001: val_loss improved from inf to 37284.91016, saving model to ./results/NN_rms_regr/FYI_MYI_likelihood/SOBEL_CAE/ckpt_1
…
