*************************** Fold #: 1 ***************************
Model: "model"
_________________________________________________________________
Layer (type)                 Output Shape              Param #   
=================================================================
cat (InputLayer)             [(None, 13)]              0         
_________________________________________________________________
dense (Dense)                (None, 10)                140       
_________________________________________________________________
dense_1 (Dense)              (None, 10)                110       
_________________________________________________________________
dense_2 (Dense)              (None, 10)                110       
_________________________________________________________________
dense_3 (Dense)              (None, 10)                110       
_________________________________________________________________
dense_4 (Dense)              (None, 10)                110       
_________________________________________________________________
dense_5 (Dense)              (None, 1)                 11        
=================================================================
Total params: 591
Trainable params: 591
Non-trainable params: 0
_________________________________________________________________
Epoch 1/10000
4/4 - 0s - loss: 34515.6641 - val_loss: 37288.5117

Epoch 00001: val_loss improved from inf to 37288.51172, saving model to ./results/NN_rms_regr/FYI/backscatter/ckpt_1
Epoch 2/10000
…
