*************************** Fold #: 1 ***************************
Model: "model"
_________________________________________________________________
Layer (type)                 Output Shape              Param #   
=================================================================
cat (InputLayer)             [(None, 29)]              0         
_________________________________________________________________
dense (Dense)                (None, 20)                600       
_________________________________________________________________
dense_1 (Dense)              (None, 20)                420       
_________________________________________________________________
dense_2 (Dense)              (None, 20)                420       
_________________________________________________________________
dense_3 (Dense)              (None, 20)                420       
_________________________________________________________________
dense_4 (Dense)              (None, 20)                420       
_________________________________________________________________
dense_5 (Dense)              (None, 1)                 21        
=================================================================
Total params: 2,301
Trainable params: 2,301
Non-trainable params: 0
_________________________________________________________________
Epoch 1/10000
4/4 - 0s - loss: 35033.1328 - val_loss: 32632.4277

Epoch 00001: val_loss improved from inf to 32632.42773, saving model to ./results/NN_rms_regr/FYI/CAE/ckpt_1
Epoch 2/10000
4/4 - 0s - loss: 35031.3164 - val_loss: 32630.5410
…
