*************************** Fold #: 1 ***************************
Model: "model"
_________________________________________________________________
Layer (type)                 Output Shape              Param #   
=================================================================
cat (InputLayer)             [(None, 27)]              0         
_________________________________________________________________
dense (Dense)                (None, 18)                504       
_________________________________________________________________
dense_1 (Dense)              (None, 18)                342       
_________________________________________________________________
dense_2 (Dense)              (None, 18)                342       
_________________________________________________________________
dense_3 (Dense)              (None, 18)                342       
_________________________________________________________________
dense_4 (Dense)              (None, 18)                342       
_________________________________________________________________
dense_5 (Dense)              (None, 1)                 19        
=================================================================
Total params: 1,891
Trainable params: 1,891
Non-trainable params: 0
_________________________________________________________________
Epoch 1/10000
4/4 - 0s - loss: 34398.0312 - val_loss: 38347.0977

Epoch 00001: val_loss improved from inf to 38347.09766, saving model to ./results/NN_rms_regr/FYI/CAE/ckpt_1
Epoch 2/10000
4/4 - 0s - loss: 34396.3633 - val_loss: 38345.2734
…
