…
******************* Fold #: 1 ***************************
Model: "model"
__________________________________________________________________________________________________
Layer (type)                    Output Shape         Param #     Connected to                     
==================================================================================================
conv (InputLayer)               [(None, 7, 7, 6, 1)] 0                                            
__________________________________________________________________________________________________
zero_padding3d (ZeroPadding3D)  (None, 8, 8, 8, 1)   0           conv[0][0]                       
__________________________________________________________________________________________________
conv3d (Conv3D)                 (None, 8, 8, 8, 8)   224         zero_padding3d[0][0]             
__________________________________________________________________________________________________
max_pooling3d (MaxPooling3D)    (None, 4, 4, 4, 8)   0           conv3d[0][0]                     
__________________________________________________________________________________________________
conv3d_1 (Conv3D)               (None, 4, 4, 4, 4)   868         max_pooling3d[0][0]              
__________________________________________________________________________________________________
max_pooling3d_1 (MaxPooling3D)  (None, 2, 2, 2, 4)   0           conv3d_1[0][0]                   
__________________________________________________________________________________________________
conv3d_2 (Conv3D)               (None, 2, 2, 2, 4)   436         max_pooling3d_1[0][0]            
__________________________________________________________________________________________________
cat (InputLayer)                [(None, 13)]         0                                            
__________________________________________________________________________________________________
flatten (Flatten)               (None, 32)           0           conv3d_2[0][0]                   
__________________________________________________________________________________________________
concatenate (Concatenate)       (None, 45)           0           cat[0][0]                        
                                                                 flatten[0][0]                    
__________________________________________________________________________________________________
dense (Dense)                   (None, 30)           1380        concatenate[0][0]                
__________________________________________________________________________________________________
dense_1 (Dense)                 (None, 30)           930         dense[0][0]                      
__________________________________________________________________________________________________
dense_2 (Dense)                 (None, 30)           930         dense_1[0][0]                    
__________________________________________________________________________________________________
dense_3 (Dense)                 (None, 30)           930         dense_2[0][0]                    
__________________________________________________________________________________________________
dense_4 (Dense)                 (None, 30)           930         dense_3[0][0]                    
__________________________________________________________________________________________________
dense_5 (Dense)                 (None, 1)            31          dense_4[0][0]                    
==================================================================================================
Total params: 6,659
Trainable params: 6,659
Non-trainable params: 0
__________________________________________________________________________________________________
Epoch 1/1000
4/4 - 1s - loss: 34659.5938 - val_loss: 35991.3203

Epoch 00001: val_loss improved from inf to 35991.32031, saving model to ./results/NN_rms_regr/init/FYI/SOBEL_CNN/ckpt_1
…
